src/trained_net.pth (torch, 368624 bytes, 10 tensors)

conv1.weight f4 [12, 3, 5, 5]
00000000: ccc8 8f3e a220 7b3e 232d d43c 4f5d e8bd
00000010: c7ec 52be 8181 8a3c 7106 663e 884a 8e3e
00000020: efdc 5a3e 77ad 4abe 8ff3 51be f15c 0dbe
00000030: f588 163e 4c5e bb3e c5d3 3dbd 4483 a5bd
00000040: 6970 86be 5e21 39be 9080 4b3e 6a36 453e
00000050: 7b92 293d 4e64 35be ae78 92be 79cd 07bd
00000060: fad8 003e 44ed 87bb 6304 3a3e 2bae 92bd
00000070: 760f 84be ccc9 e4bd 0938 fdbd 3b37 ae3d
00000080: db18 883e 36cb af3d da1d a4be ffb6 6bbe
00000090: 813e d6bd 75da e43d c702 053e 76bc 153c
000000a0: 3172 eebd b0ff 74be e5e8 e1bd 353c e33d
000000b0: cbf1 013e dc5d 3a3d c482 06be 1d8f d2be
000000c0: 71be 5fbd 7fe8 483d 8aab 9e3e d830 673e
000000d0: 8e5b 59bc eb3d 9abe 2e79 4abe ff41 c03d
000000e0: a607 1b3e eef1 c03e f60a 1c3e bdd6 8abe
000000f0: e32f c43c 2e6d 00be ff25 1c3e 6731 633e
00000100: 4baf 633d 6c51 833d 8b57 42be 8c4c 84bd
00000110: 5994 873e ce7d 0a3d a631 b33d 2d48 dab9
00000120: b527 e8bc cffc 433d 2395 3a3e 78e4 54be
00000130: bc49 26be 56e3 7fbe ed20 153d 8878 333d
00000140: 0d50 3ebe 8cf5 943c d9cf 65bd ec2a 123d
00000150: 740e cabd 8378 eebd 51e0 ba3c 8e83 4d3d
00000160: 14cc 01bd 3466 cf3c cf35 0cbd b580 bfbc
00000170: 7811 c23a ee8c 94bd 1f76 633c cd95 85bd
00000180: 00d1 fcbc 4b42 8bbd 1136 03be 9766 19be
00000190: 8cb4 a0bd 22db 1bbe 69e4 ddbc d93f 06bd
000001a0: 9072 063e 8807 a1bd 2562 28be 0860 c0bd
000001b0: ae77 8a3d 274d 25bd cef6 553c 8ce8 a6bd
000001c0: e37a 923d 8f83 3b3e 0b88 b33d 7f5b e2bc
000001d0: 339a c73c 1a4b 0e3e dd08 193e 5801 ca3d
000001e0: a784 b83d 8f95 a73d d3c6 4ebc eb74 d03d
000001f0: c313 eebd df88 4dbe fd74 efbd b2a1 d3bc
00000200: 5704 3e3e 508d 453d 0bcc 3abe faa1 dbbd
00000210: eb1d dc3d 0d04 863e edbe 843e 0831 b63d
00000220: ef5c fc3d 07d6 0b3e e7dd e43d e4af c13d
00000230: 7c1d 113e 75f9 973e 7bee ae3e bab4 863e
00000240: e4f4 153e e320 363e 6f9b 433e e784 393e
00000250: a4dc 843e 79fd 3f3e 7900 e1bd 6ae4 87bd
00000260: bbc5 f1bd 7704 cebd 9442 f3bd 2e03 76bd
00000270: af49 80be 4239 82be feaf 94be 4b67 57be
00000280: 4e2b c2bd d7b9 7fbe 1473 a4be ff03 d1be
00000290: 4b00 6dbe f5c4 92be c651 81be 9d26 17be
000002a0: b3bd 91be c7be b3bd e800 65bd 6347 8e3c
000002b0: 0874 26bd dc74 37be dcfc ae3d 8d1e f73d
000002c0: 8822 c53d a8db cd3d 1261 813b 2921 d93d
000002d0: ee13 903d cc4e c13d 95d5 d73d 77d4 c53d
000002e0: 613b 183d 0157 70bd 239d 173e a4b9 103c
000002f0: 40ea 46bc c56a 7f3d d638 dc3d a238 b0bd
00000300: a5a1 5d3c e15d 863c dcde 1c3d 914b 01bc
00000310: 095e b83d 24ec 1d3d 838c a23b 9f24 12be
00000320: 809c d3bb 0ea7 803d d870 f83b 9e58 ab3d
00000330: 2f13 0dbd 70f9 a73d d357 533e 5774 8f3e
00000340: 2292 763e 2bef ae3d 1d07 d4bc b8a4 1abc
00000350: 9b53 803e c891 9c3e 2dd5 0b3e 01ec 253e
00000360: 07eb 453e 7fd2 613d 0f8e 313e 3709 4e3e
00000370: e838 683e b002 083e 3610 0e3e 36ae 3d3e
00000380: 7fee 38bc 3878 ee3d 4343 823d cf36 d73d
00000390: d35d ce3d 6eae 683d a8b3 f5bd ac02 27be
000003a0: 4324 f93d 2f44 a03e de13 13bd 961d 21be
000003b0: 7c89 e9be c9fb 11bd c32b 9a3e bd2a 693e
000003c0: dba0 dbbd 57cc bebe 5244 c13a 2a72 e43e
000003d0: ab31 093e 525d 58bd 4e16 13be 4b40 06be
000003e0: fcc7 433d eb54 303e 0916 16be 47b8 a3bd
000003f0: 7794 b33b de8c 603d 6f2e 29be a7cc b2bd
0.28082883 0.24524167 0.02590043 -0.11345922 -0.20598136 0.016907455 0.22463395 0.27791238
0.21373342 -0.19792734 -0.20503066 -0.13804986 0.14700682 0.3659538 -0.046344537 -0.080816776
-0.26257637 -0.18079135 0.19873261 0.19259039 0.04139946 -0.17714044 -0.28607696 -0.03315494
0.1258277 -0.0041481573 0.18165736 -0.07162126 -0.25793046 -0.11171302 -0.123642035 0.08506628
0.26581463 0.08583681 -0.32054025 -0.23019026 -0.104611404 0.1117448 0.1298934 0.009139171
-0.11642874 -0.23925662 -0.11030749 0.11095468 0.12689893 0.045499668 -0.1313582 -0.41124812
-0.05462498 0.04904985 0.3099025 0.22577226 -0.013266457 -0.30125365 -0.19772789 0.09387588
0.15139636 0.37684578 0.15238556 -0.27116957 0.023948615 -0.12541649 0.1524887 0.22186814
0.055587094 0.06412014 -0.18978707 -0.06459913 0.26480368 0.033811383 0.08749704 -0.00041633975
-0.028339246 0.04784852 0.18220954 -0.20790279 -0.16239065 -0.24989066 0.036408354 0.04381612
-0.18585224 0.018183492 -0.056106422 0.035685465 -0.09866038 -0.116440795 0.02281204 0.05017429
-0.031688765 0.025317289 -0.034231003 -0.023376802 0.0014806231 -0.07253443 0.013883143 -0.06522713
-0.030861378 -0.06799754 -0.12813593 -0.14980541 -0.078469366 -0.15220311 -0.027086454 -0.032775734
0.1312964 -0.078627646 -0.16443689 -0.093933165 0.06761108 -0.04035678 0.013059331 -0.081498235
0.07152345 0.18311904 0.087661825 -0.02763152 0.02436552 0.13895836 0.14944787 0.098635375
0.090096764 0.08182823 -0.012620646 0.1017855 -0.11624863 -0.20071743 -0.116922356 -0.025833938
0.18556343 0.04823047 -0.18241899 -0.10724254 0.10747894 0.26174966 0.25926915 0.08896071
0.12322413 0.13655864 0.11175137 0.094573766 0.14171404 0.29682508 0.3416632 0.26309758
0.146442 0.17785983 0.19102262 0.18117104 0.25949585 0.18749036 -0.10986418 -0.066353634
-0.11805292 -0.10059445 -0.11877933 -0.060061626 -0.25056216 -0.2543431 -0.2904052 -0.21035497
-0.09480916 -0.24973236 -0.32119048 -0.4082336 -0.23144643 -0.2866589 -0.252577 -0.14760824
-0.28465042 -0.08776622 -0.055909067 0.017368024 -0.040638 -0.17915672 0.08544323 0.12066374
0.09625727 0.10051662 0.0039483393 0.10602028 0.07035051 0.094388574 0.105387844 0.09659665
0.037166003 -0.058676723 0.14806037 0.008833323 -0.0121408105 0.062357683 0.10753028 -0.08604552
0.013527309 0.016402187 0.038298473 -0.007891552 0.09002311 0.03855528 0.004960598 -0.14271782
-0.0064578652 0.06281863 0.0075818114 0.08366512 -0.034442123 0.08201873 0.20638971 0.28018448
0.24079183 0.085417114 -0.025882298 -0.009438686 0.25063786 0.30579972 0.13655539 0.1620331
0.19327937 0.055132385 0.17339347 0.20120703 0.22677958 0.13282275 0.13873371 0.18523487
-0.011287331 0.11644024 0.063604854 0.10508501 0.10076489 0.056806974 -0.11997157 -0.16309613
0.121651195 0.3130202 -0.03590762 -0.15733942 -0.45612705 -0.03564051 0.30111513 0.2277021
-0.1072404 -0.37265274 0.0014745092 0.4461835 0.13397853 -0.052823372 -0.14363977 -0.13110463
0.04779814 0.17219894 -0.14656843 -0.079941325 0.005480345 0.05482184 -0.1652162 -0.087304406

conv1.bias f4 [12]
00000000: 56c5 863e 87d0 d2bd 28c7 433f 98ba c2bd
00000010: 23b5 9bbd 19b2 023f 2254 5cbe 7c13 453e
00000020: 1538 9fbe d172 8fbd 8820 2fba 962d 9fbd
0.2632243 -0.1029368 0.76475763 -0.09508246 -0.076029085 0.51053005 -0.21516469 0.19245714
-0.31097475 -0.07004321 -0.0006680568 -0.07772367

conv2.weight f4 [24, 12, 5, 5]
00000000: 0e8a 1f3c ee04 b63c 94df 813c b8ac 6ebc
00000010: cd1c f43c baa9 353d ce52 9c3c e424 383d
00000020: 2ae8 d7bd 995f a4bd de1a d93b 1ec4 edbc
00000030: 1b24 1a3d b122 453c 3028 42bb 827c 363d
00000040: 4ebb 78bc 1bb2 043d 8130 17bd d128 013d
00000050: 4351 bd3c 52bf cc3d e276 da3c 2268 d8bc
00000060: 9255 513a 6a06 3c3c e431 3c3d 1c09 673d
00000070: dff6 213d 5862 a33b 7502 7dbd fcfd e23c
00000080: f192 803d c721 4ebc 11b9 603d c119 673d
00000090: add2 25bc 3fef 383d 2632 473d ebc2 bd3c
000000a0: 8150 88bc efba 9e3d 2596 ab3d 287b 823d
000000b0: 26c5 123b eed3 62bd 55fd e53c 88df db3c
000000c0: ed35 f53c 4feb 01bd df83 b23d 573b 8a3d
000000d0: 2aab 2ebc cd1a 253c 47d1 a3bd 1ef6 01bd
000000e0: caf7 babb ce3e 4fbd d9a5 8a3b 55fe 86bd
000000f0: 78e7 76bd f327 ee3c 3dee 5fbd 16d1 6ebc
00000100: 4b0d 0fbc ca10 4bbd 642f 37bd a7a1 7f3c
00000110: 2204 b53c 92bb 8e3c fc9e cabc e030 913c
00000120: b8c4 393c 1ddb 493d 880d 46bd f915 91be
00000130: acd3 04bd 4be0 3abd e6cb 25bd df0c e03c
00000140: 1c5a 98be c254 8cbd 1404 393b 9332 153e
00000150: 384b fbbb e043 53be 4b23 03bd 707e 573c
00000160: ef6f 603e b05a 633d d6bd f1bd a494 383d
00000170: dce4 2e3d cba0 663e 40c4 38bd 6781 82bd
00000180: 5add 1a3e b9e1 b13d 8e7b 453e f150 8dbc
00000190: 57fd f7bd 4960 a2bd 6263 013d 589a a83d
000001a0: 4a92 88bd 7afe 04be 1616 5abd 3125 063e
000001b0: 1c43 013e a95d 973d 5117 07be b230 76bd
000001c0: f578 483e 8660 093e a157 9a3c a68b 58be
000001d0: 39d3 debd 4040 3f3e 8283 1a3e 54b2 813d
000001e0: f810 03be e28d c9bb 98d1 f23d 4c3b 403e
000001f0: a24d 12bd 39cc 94bd 8d85 c1bd 27ee 733c
00000200: 6a17 18bd e8b7 83bd 30a3 20bd 6ade acbd
00000210: fca4 99bd a79d ecbc 0d0b 35bd 012a f8bd
00000220: 86b7 85bd 64d5 04bd 7f90 48bc 2505 80bd
00000230: ce69 99bd 2ef5 84bd 6841 c83c 5422 59bd
00000240: aded d1bc fe4d 87bb 52d8 61bc 7c9f 34bd
00000250: da04 1bbd 4823 5abd b192 abbb b75a 0c3d
00000260: a4d9 c43c 6187 9d3c 7660 a3bd e274 e3bd
00000270: 22ce c8bd 28ff abbc 4ec8 1a3d 3cd5 583c
00000280: 9b69 b8bd 115f f1bc 5132 a93c 27bb 94bd
00000290: f585 6f3c 934f 82bd bc0c 87bb 5850 7bbd
000002a0: 4dab 503c 1a92 423d e713 69bc 5617 263d
000002b0: e996 a03d 36c8 873d 0c10 b8bc 36f2 3b3d
000002c0: 952e 1c3d d626 1c3c 514c 35bd d2ad 38bd
000002d0: f3f0 f93c ce1c d93c 542f 76bc 994a 163d
000002e0: 850c 8abd 2ef2 9abd b7af 24bd 1bd7 80bd
000002f0: 3120 00bd f774 81bc b439 cebc 9530 d03b
00000300: 909e e1bc b5fd 393d 1ce2 e23d 986f 973b
00000310: 5562 743d c59d 4e3d 2750 903d 4149 aa3d
00000320: d3f8 ccbd f326 ffbd 0d47 a0bc ad80 5abd
00000330: 9305 85bb d7df b53a 5311 77bd 2896 ffbd
00000340: fdf9 46bd 1fa7 66bd fef3 61bd 7ad0 fbbd
00000350: 563e 0dbe 7083 c9bd 0dcf 25be 4e7c 893d
00000360: c17b a03c f713 6cbd efe1 19bd 8cc5 d6bc
00000370: 7246 e1bc 10d2 183d fc16 d63c 1956 bebd
00000380: 8dfa a2bc 06f1 ebbd 6f49 6ebe c6ad 17be
00000390: 89ab 763d 3b26 07bd 3a42 3dbe 9be8 53be
000003a0: 40db dfbd 03e4 813e 726e 4b3d 8e2d 6dbe
000003b0: 4f15 43be f30c 533d 06a7 923e 67d5 a3bd
000003c0: 00bf 51be 428d 2fbd 6d8f 823e cdc9 553e
000003d0: 6d6f 70bd 8acf 2ebe b3c8 9d3d 1908 0a3e
000003e0: 448c ff3d 75cf e0bc 0f07 e4bd 154a 58bd
000003f0: fb37 353d 2d9e 76bc 9c07 df3d 71b0 02be
0.009737505 0.022219148 0.01585368 -0.014567547 0.02979889 0.044351317 0.019082453 0.044957057
-0.10542329 -0.08026046 0.0066255173 -0.02902418 0.03763209 0.012032197 -0.0029626004 0.044552334
-0.015181376 0.032396417 -0.03691149 0.031533066 0.023110038 0.09997429 0.026668016 -0.026416842
0.0007985468 0.011476139 0.045946017 0.05640517 0.039542075 0.0049860887 -0.06176992 0.027709
0.06278027 -0.012581295 0.054863993 0.056421045 -0.01012103 0.045150038 0.04863181 0.023164233
-0.01663995 0.077504985 0.08378247 0.063711464 0.0022395342 -0.055377893 0.0280749 0.026839986
0.02993294 -0.03171855 0.08716559 0.067495994 -0.010660926 0.010077191 -0.07998901 -0.031728856
-0.0057058083 -0.050597005 0.0042311964 -0.06591479 -0.06027934 0.029071784 -0.05467056 -0.014576217
-0.008731197 -0.04957656 -0.04472293 0.015602506 0.022096697 0.017423425 -0.024734013 0.0177235
0.011338405 0.04928123 -0.04835275 -0.28337076 -0.03242843 -0.04562406 -0.040477656 0.027349887
-0.29756248 -0.06852104 0.002823119 0.14570074 -0.007668879 -0.20631361 -0.03201608 0.013152704
0.219177 0.05550641 -0.118037865 0.04506363 0.042698726 0.22522275 -0.045109034 -0.06372338
0.15123501 0.08685631 0.19285414 -0.01725051 -0.121088676 -0.07928521 0.03158892 0.08232564
-0.066685274 -0.129877 -0.05324372 0.13100125 0.12623256 0.07390911 -0.13192488 -0.060105033
0.19577391 0.13415727 0.018840613 -0.21147022 -0.10880131 0.18676853 0.15089229 0.063328415
-0.12799442 -0.006150947 0.11856383 0.1877262 -0.035718568 -0.07265515 -0.09449301 0.014888323
-0.037131704 -0.06431562 -0.039218128 -0.084408596 -0.075021714 -0.028883768 -0.044199992 -0.121173866
-0.06529145 -0.032430068 -0.012241482 -0.06250981 -0.07490884 -0.06492077 0.02444525 -0.053011253
-0.025626028 -0.0041291704 -0.013784485 -0.04409741 -0.037846424 -0.053256303 -0.005235993 0.0342662
0.02402956 0.019229593 -0.07977383 -0.11106278 -0.09804942 -0.020995691 0.03778868 0.013234433
-0.09004518 -0.029464277 0.020653876 -0.07262259 0.01461934 -0.06362834 -0.004121391 -0.06135592
0.012736154 0.047502615 -0.0142259365 0.0405496 0.07841284 0.06629984 -0.02246859 0.045885287
0.03813036 0.009530744 -0.044262234 -0.045087643 0.030510401 0.026502993 -0.015025932 0.036692236
-0.06740669 -0.07565723 -0.040206637 -0.06291028 -0.0312807 -0.015802843 -0.025174 0.0063534477
-0.027541429 0.04540797 0.11078283 0.0046214573 0.05966409 0.05044343 0.07046538 0.08314753
-0.10008397 -0.12458601 -0.01956513 -0.05334537 -0.0040595024 0.0013875914 -0.060319256 -0.12479812
-0.04857825 -0.056311723 -0.05516433 -0.12295623 -0.1379331 -0.09839523 -0.16192265 0.06713162
0.01959026 -0.057636227 -0.037568983 -0.026217245 -0.027499411 0.037309706 0.026134007 -0.092937656
-0.019894863 -0.11520581 -0.232702 -0.14812383 0.060222182 -0.032995444 -0.18482295 -0.206942
-0.109304905 0.25369272 0.049665876 -0.23161909 -0.19051097 0.05152602 0.28643054 -0.07999688
-0.20483017 -0.042859323 0.2550005 0.20877762 -0.058700014 -0.17071357 0.07704296 0.13479652
0.124779254 -0.027442673 -0.11134159 -0.052805025 0.04424284 -0.0150523605 0.10890123 -0.1276262

conv2.bias f4 [24]
00000000: 397e 0abe 35bd 3f3e fc25 b8be 8715 8f3d
00000010: 757a 6bbe ed90 223e bb09 e93d e7ee a1be
00000020: 8bfc 2dbf 1c4c 103f 5c1d a4bd e8f5 15be
00000030: 5b35 153f d7a6 f53e fb0d 91bd 0ba4 b3bc
00000040: b99c 203e 01ac a83e 8ba9 05be c2fa 1fbc
00000050: 63b1 543e e5f2 09bf 1484 a9bd 20ae f5be
-0.13524713 0.1872452 -0.3596648 0.06986528 -0.22995932 0.15875597 0.11378809 -0.3162758
-0.67963475 0.56366134 -0.08013412 -0.14644587 0.5828454 0.4797885 -0.07082745 -0.021928808
0.15684785 0.3294373 -0.13052957 -0.009764375 0.20770793 -0.5388625 -0.08277145 -0.4798441

fcl1.weight f4 [120, 600]
00000000: 94e8 44bd 0147 2fbc 53d1 e63a 134b 5e3c
00000010: f9ba f6bb 2208 233d 7459 02bd 42b3 a7bb
00000020: b08e 06bd 1181 a33b 982d 603c 7ffd 0fbd
00000030: 69dc 0dbd 0cef 293d 31b9 3bba 0ca5 b7bd
00000040: 6f44 4dbd 02ba 9abc bcdb 853c f12b d23b
00000050: f39b a4bd be8c 5fbd f992 fa3b b63a b5bc
00000060: 40a9 1cbd c2b6 97bb 042d 3d3b a6bc 0cbd
00000070: 81b8 8cbd 01d2 3cbd e407 653d acfd 0c3c
00000080: 3b3a 43bc 99cd 76bd f171 0cbd b589 243c
00000090: 6e42 343d cf55 333d 0acd 9bbc 4450 5ebc
000000a0: b6e4 fabc 008b ba3c 4101 193d c40a 793d
000000b0: f2f1 80bc 6655 923b b28f 203d a7a7 243d
000000c0: f90a 713d 47c1 323d 9263 353d 0de5 38bc
000000d0: fbf2 28bc f077 bebc a1a1 6abd bf75 77bc
000000e0: 3f65 063d 5faa 4d3c ca0b ea3a ac46 283d
000000f0: b4df 4abd 4735 663c fc75 af3c 7bfd 0dbc
00000100: 5b24 96bd d328 2d3d 8d60 46bd 9604 26bd
00000110: 081b 873d 976f 7d3b 93da be3b 621f 9b3c
00000120: 3830 bbbd 31c5 2cbd 1274 fabc 494e e33d
00000130: 7378 983c b146 bd3c 7acd 873d 1152 893c
00000140: 536a 8d3c c5bb c13d 7b58 7f3c 3a28 253d
00000150: 6365 32bd a73a a2bc 6001 583d e229 f13c
00000160: 7ffe 83bc e314 523c 0bb8 713c 2264 b23d
00000170: 3c1e 24bc 66b8 84bb 7aa1 0d3b b532 febc
00000180: a863 953c 3ef7 893b 8699 2fbd da1d 8dbd
00000190: 0755 acbc b4bd 3ebd 94b7 a5bd 5ad2 edbb
000001a0: d6b1 be3c 748f 823c a62e c13c cc3c 82bb
000001b0: 4750 1abd 543e e7bc 7bcb 9b3d c8e6 273d
000001c0: 83cf 533d 5814 d73c ea87 483c cf3f 6a3d
000001d0: a3af ad3c 4ebd 333d cc68 9a3b c079 8dbb
000001e0: 39e0 46bd 9f11 3cbc 2ac9 003c 886e 063d
000001f0: cc34 ac3c e0fe f93c d5bc c6bc 5dd2 1abc
00000200: e141 5dbc 4b2b 3dbd 35e5 91bd e741 373d
00000210: 6145 b33d 2ed2 903d 27b1 d2bc a4e1 c9bc
00000220: dcac 853d 2e72 0fbc ca9b 423d 424c ac3d
00000230: cfc2 13bd ac95 8db9 0578 90bc 3c9c 58bd
00000240: 2fae e73c 3913 35bc 0b1d 003d d81d 323c
00000250: b10f fbbb b2f0 a5bd 7607 e7bd a496 3f3a
00000260: 49b6 c73b 832f 97bd 613d 48bd 2c30 eabb
00000270: 4eb2 3bbc 53e4 64bd 8b0d e73c 839a 3dbd
00000280: dcdf 0cbd 2faf be3d 72f4 093d b5ae 113d
00000290: 7f28 bebc 6c0d 833c c1d8 a63d eaf0 0a3e
000002a0: a960 c53b c529 ed3c c1fe 683c d8fd 9a3d
000002b0: 7974 803c a2e0 233c ec17 d3bc fb50 66bd
000002c0: 528a 983d d1ab 17bd 34c1 05bc 1d17 2b3d
000002d0: bd09 14bd 3814 f73c d958 89bd a7fc 9d3c
000002e0: f1a8 1dbc d6ca 5d3d 7f23 2cbd c4ee 01bb
000002f0: 2bc6 8f3d 1634 87bd b92f ecbc 29a5 a1bb
00000300: 27a4 12bc eb20 29bd 1ff2 56bd fe2b 24bd
00000310: edb4 5abd a169 643c 0d5b 5f3c 9c30 e53c
00000320: 7470 a13d 39dd ec3d feec a23d 0966 d2bc
00000330: bb2f bdbd db88 483d 95b3 103d 116a ff3b
00000340: cf0a e33b 361f 50bd fc07 63ba 39b9 ef3c
00000350: 7dd6 773d efe2 803c 8be6 7a3b faf1 b03c
00000360: ce56 ab3d a2c4 15bc 20be b3bb 5ed2 bcbd
00000370: cee4 b6bb 277f c1bb 8eca 013c f358 a3bb
00000380: 85c4 d4bd 4ed2 3fbd 0063 223d 3748 31bc
00000390: ef10 e9bb 86c3 f23b 0507 893d eb5c ac3d
000003a0: 3f3a 18bb fcea 46bc 177d 9b3d c1fd d83d
000003b0: 3dc3 483d 7151 2d3d 9b7c 863d 0732 10bd
000003c0: da09 da3d fe10 7b3c 8bd3 b13d 5c1a d33d
000003d0: da68 413d eb64 e53d 21f7 fb3c 567a 623d
000003e0: 7dd7 fbb9 e107 963d f6d6 743d ff60 8cbd
000003f0: 0e2b 75bc 780e a2bc 0dc7 a4bb a8c3 cdbc
-0.048073366 -0.010698081 0.0017609991 0.013567704 -0.007529613 0.039802678 -0.03182359 -0.0051178047
-0.03285092 0.004989751 0.013682745 -0.035153862 -0.034634028 0.04148774 -0.00071610796 -0.08967027
-0.05011409 -0.018887524 0.01634013 0.0064139296 -0.080375575 -0.05457758 0.007646915 -0.022122722
-0.038247347 -0.0046299407 0.0028865943 -0.034359597 -0.06871129 -0.046098713 0.05591573 0.008605402
-0.011915739 -0.060254667 -0.03428835 0.010042598 0.044008665 0.043783005 -0.019018669 -0.0135689415
-0.030626636 0.022771358 0.03735471 0.060801283 -0.015740369 0.0044657467 0.03919954 0.04019895
0.058848355 0.043641355 0.04428441 -0.011285079 -0.010311837 -0.02325055 -0.057283048 -0.015103756
0.0328114 0.012552827 0.0017856297 0.041083023 -0.049529746 0.014050788 0.021418564 -0.0086663915
-0.07331153 0.04227526 -0.04843192 -0.040531717 0.06596953 0.003867125 0.005824396 0.018935863
-0.09140056 -0.042180244 -0.030572925 0.11098916 0.018612122 0.023104997 0.066309884 0.016762765
0.017262613 0.09459642 0.01558506 0.040321566 -0.04355372 -0.019803358 0.052735686 0.029438917
-0.016112564 0.012822363 0.014753352 0.08710505 -0.010016974 -0.0040503023 0.002161114 -0.031030038
0.018235996 0.004210382 -0.04287102 -0.06890459 -0.021036638 -0.046567634 -0.080916554 -0.007257742
0.023278158 0.015937544 0.023581814 -0.0039745327 -0.037674215 -0.028227963 0.0760717 0.040991575
0.05171157 0.026254818 0.012239436 0.05718976 0.021201914 0.043881707 0.0047122 -0.0043174922
-0.04855368 -0.011478811 0.007860461 0.032820255 0.02102127 0.030517042 -0.024259964 -0.009449569
-0.013504476 -0.046183866 -0.07123796 0.044740584 0.08753467 0.070713386 -0.025719238 -0.024643727
0.06527111 -0.00875525 0.047511853 0.084129825 -0.036074456 -0.0002700513 -0.017635355 -0.05288337
0.0282813 -0.011051946 0.031277698 0.010871373 -0.0076617827 -0.081025496 -0.1128072 0.0007308519
0.006094728 -0.07382109 -0.04888666 -0.007146856 -0.011456085 -0.05588181 0.0282047 -0.046289932
-0.034393176 0.09310757 0.033680387 0.035567004 -0.02321267 0.015997611 0.08146811 0.13568464
0.0060234857 0.028950581 0.014220894 0.07567948 0.015680538 0.010002287 -0.025768243 -0.056229573
0.074482575 -0.03702909 -0.008163739 0.04177009 -0.0361421 0.030161008 -0.067063995 0.019285513
-0.009622798 0.054148518 -0.04202604 -0.0019826153 0.070202194 -0.066017315 -0.02883135 -0.0049330187
-0.00895027 -0.04129116 -0.052477 -0.040081017 -0.0533952 0.0139411995 0.013632548 0.02797728
0.07882777 0.115656324 0.07955359 -0.02568342 -0.092376195 0.04895864 0.035327513 0.0077946265
0.0069287787 -0.050811015 -0.00086605526 0.029263126 0.060507286 0.01573321 0.0038284387 0.021599758
0.08366166 -0.009141119 -0.005485311 -0.09219812 -0.005581475 -0.0059050503 0.007921828 -0.004984969
-0.103890456 -0.04683142 0.039645195 -0.01082044 -0.0071126143 0.007408562 0.06690792 0.0841616
-0.0023228077 -0.012140986 0.07592218 0.10595275 0.04901432 0.042313997 0.06566735 -0.03520396
0.1064641 0.0153238755 0.08682927 0.10307762 0.047219135 0.11200889 0.030757489 0.05529245
-0.00048035002 0.073257215 0.059775315 -0.06854438 -0.014963878 -0.01978229 -0.0050286115 -0.02511771

fcl1.bias f4 [120]
00000000: e516 3f3d 1056 aa3b c90f 8b3c ce64 57bc
00000010: 9297 1dbd c92b 5d3d a26c bcbc c5cd 913c
00000020: bfda 733d 46aa 6e3d 81fc 273d 15cc 043d
00000030: e93b da3c c6b4 4f3d 10fa b33d 8f1e d9bc
00000040: 649f 92bc aff0 8c3d a58c 07bd 7efd a0bd
00000050: e438 35bd ff86 afbd c5d7 253d 52d3 a23d
00000060: f10a 113c 3033 c3bc 6b67 633b 0681 8dbd
00000070: 40a2 c73c 2cd2 f13b 61df 83bd a72f c83c
00000080: e145 ee3b d351 183e b42b a9ba 2b8e 2bbb
00000090: 8127 2b3d 6dfa 32bd 8fed 013e 73af 233d
000000a0: 7867 81bd 34ab 4e3c a4e5 dc3d 1999 cbbd
000000b0: 2b61 b2bd ce13 c1bc 77d1 a7bc baff c739
000000c0: f101 bf3d e7d3 413d 79b1 283e f18e f73d
000000d0: 55a2 a7bc 00fc 973d d0d0 21bd 6361 5f3d
000000e0: 6cc9 44bc 5129 453b f82a 993d 4962 69bd
000000f0: 52fe 203e b6c8 743d 0e2a df3d 29b5 f6bc
00000100: 1b16 953c ea4f 84bc 2699 e7bc 0f30 42bd
00000110: 3920 30bd 91ed 863c 5698 acbd a00a 24bc
00000120: 592a afbb fdf8 cebb c4cf 363e 1e1f 323d
00000130: d6b1 01be b703 8b3d 5967 47bc 0e89 dabc
00000140: 9b6a b9bc 3e02 69bd 84d8 45bd 5f41 a2bd
00000150: 61a6 7d3d 5a03 433d 762e 023e b7ce 6ebc
00000160: 3096 a23d e68e 913c 296f dcbd 458a 7b3c
00000170: f581 633e ac1d 193d f829 15bd 6f09 323d
00000180: 60a5 543d 47b1 c03d 1c13 a0bd 21b2 563d
00000190: 3bb9 e33d 7bab fa3d 560f 72bb 827a 163d
000001a0: 3e29 1bbd f453 95bd 1da5 fdbd 371c 14be
000001b0: 3fb6 98bb ab9f 1dbd 75b6 96bb d574 073d
000001c0: 2140 c73d 94e5 6cbd 1ee6 7ebc 0f37 ae3d
000001d0: bd98 8d3d 70d4 323c 32c6 a6bd e67d 2c3d
0.046652693 0.0051982477 0.0169753 -0.013146592 -0.038474627 0.053996835 -0.023001019 0.017798314
0.059534784 0.058267854 0.04101229 0.03242119 0.026639896 0.05070951 0.0878793 -0.02650383
-0.017898269 0.06881844 -0.033093113 -0.0786085 -0.04424371 -0.0857067 0.040488977 0.079504624
0.008852706 -0.023828119 0.0034699093 -0.06909375 0.024369359 0.007379791 -0.064390905 0.024436785
0.007271514 0.14874963 -0.0012906701 -0.0026177268 0.04178572 -0.043695856 0.12688278 0.039962243
-0.06318563 0.01261406 0.10785988 -0.099413104 -0.087099396 -0.023569014 -0.020485623 0.0003814677
0.09326542 0.047321226 0.1647395 0.12087811 -0.020463148 0.07421112 -0.03950578 0.054536235
-0.012010913 0.003008444 0.07478899 -0.056978498 0.15722016 0.059761725 0.10896693 -0.03011568
0.018199017 -0.016151387 -0.028271269 -0.047409113 -0.04299948 0.016470702 -0.08427493 -0.010012299
-0.0053456244 -0.006316303 0.17852694 0.043486707 -0.12665495 0.06787818 -0.012170636 -0.02667668
-0.022633841 -0.056886904 -0.04830219 -0.07922625 0.06192625 0.04761062 0.12713036 -0.014575652
0.07938802 0.017768335 -0.107633896 0.01535279 0.22217543 0.037381813 -0.036416978 0.043466028
0.051915526 0.09408813 -0.07816145 0.05241597 0.11119314 0.122397386 -0.003693541 0.036737926
-0.03788113 -0.072914034 -0.123850085 -0.14463888 -0.0046603973 -0.03848235 -0.0045993873 0.033070404
0.097290285 -0.05783613 -0.015557794 0.08506595 0.06913898 0.010914907 -0.081432715 0.042112254

fcl2.weight f4 [84, 120]
00000000: c399 8bbd f69c 2cbc 2f27 e13c 5797 263d
00000010: e684 7bbd 0544 983c aa13 983d e03f f3bc
00000020: 1db5 e3bd 25e1 81bd 2b0b 9b3d 6e8c 833d
00000030: 6287 213c 44f2 6eba 80e8 ba3d 06ea bcbd
00000040: 50ba 63bc 6632 bb3c d3b7 c0bd 2956 933d
00000050: 7a62 8dbb 9249 eb3b 92b7 593c 28e4 f8bc
00000060: 18c9 63b9 d17c aebb 0311 5cbb d41c 8cbd
00000070: b44a 0f3d c0b0 743d b5ee cbbc d472 093d
00000080: dfa9 5cbd e686 843d b12b e03d dfa1 b3bd
00000090: 1359 afbc e7dc 143b 7b0f c83d 44a2 3abd
000000a0: 764b 0fbc 6838 6bbd e768 05bc 5126 173d
000000b0: a1fd 773b 88c8 16bc 4ebc b63d 808f 0abd
000000c0: 097e c8bc 3dc4 e33d ebe8 9fbd 1e9c 9e3d
000000d0: 770d 8abc 7d61 d93d e940 3b3d b0fa 1b3d
000000e0: 5ce1 193d 3e5e 53bd 0b17 983d 7c19 c43c
000000f0: 6856 6cbc d040 35bd 8d31 db3c 6883 58bd
00000100: a966 bc3c beb8 7c3d 59d4 96bd 6a98 7abc
00000110: 49b8 5b3d 0f4c 9bbc 4e7f 023d 15b8 bb3d
00000120: 2000 8abd 126c 973d ec05 a4bd 5428 b3ba
00000130: 315e 51bd 36ea f13c 53cd 2bbb e9c3 ab3d
00000140: c666 c6bc 0880 4dbd 185b 51bd ab26 9e3d
00000150: fdf0 a43c 505e a53d 83e5 b8bb 5b81 a1bd
00000160: 68c6 a6bd b847 153d b25a 9a3d 5942 26bd
00000170: e4b9 36bc 9a5d 203d 52a8 e9bc 451b 9b3d
00000180: 0fc7 873d b243 363d bf2a 06bb d054 41bd
00000190: 49c5 a93d 6138 3ebd 415f 403d d6d7 8b3d
000001a0: b083 a5bd 4e46 82bd c429 d63d 5cd0 e1bb
000001b0: 4928 403d 44cc abbd 2236 1e3d a3af 423d
000001c0: bd90 81bc d1a7 5ebd 5999 bbbc 29cd 2d3d
000001d0: 93c0 1a3d e281 2fbc da1e 9abd 0db4 89bd
000001e0: 0afd 893c 0cd9 39bd 4cd2 89bc cc59 fa3c
000001f0: 2088 16be ffe6 9f3d 8ec4 63bd ca4c 6c3d
00000200: 7f51 d23d e7c5 4f3d 9d61 3d3d 01a8 edbd
00000210: 08d8 ce3d 238e b7bc 36fc 83bd c9c0 ff3c
00000220: dca7 213d 8816 373d 4f13 bb3d bb2e cbbd
00000230: da0c a43c 64d1 82bd 0aac d9bd 7dd5 0c3d
00000240: 5a37 d03c ca50 bd3d d392 3dbd 2372 3fbd
00000250: 1a73 c53c 50cc ed3c 1ca6 363d 63ca 35bd
00000260: ca1d ed3d 18ba bf3d dc31 85bc 6c9c 94bc
00000270: 686b adbd ca97 b13d 1f41 a4bb a357 d8bc
00000280: 8fe2 93bd 2d08 c83d 97f1 d23d 4316 08be
00000290: 726d 28bd 0ce1 afbd 5ac9 853c 9a25 893c
000002a0: 144d 11bd 0398 01bd ed18 d63c a909 c1bd
000002b0: 1e55 1fbd 93f9 2a3d 1531 8d3d ddfa de3d
000002c0: e8ab 0d3e 3f13 9f3c 4152 dfbd 733f e3bd
000002d0: 4809 e7bd 8cf7 a0bc 0b06 06be d626 753c
000002e0: 86a2 6d3d 8e1f 53bd e346 96bb a8f3 403b
000002f0: f22f 72bd d90b d8bc d99c bdba 8e7e 56bd
00000300: f5ea 38bd 1173 c6bd 53aa 813d 3ac3 013b
00000310: d138 61bd 2c01 9abb 2815 8c3d 15e8 f13d
00000320: 77ab cb3d 21ad 8b3d be76 13bc 0e1a 8e3d
00000330: 7f9c dfbc c705 ec3c cee1 153d 2a16 22bd
00000340: 7584 18bd b4fb 6ebd a2c5 d2bc a87e 4b3d
00000350: 6fb5 183d f680 41bb f89f f53c 7050 b5bd
00000360: 32b4 edbd 3a5a c0bd 33fd 2c3d a928 473d
00000370: 07b3 033d 3b90 9c3d c253 d7bd 0306 abbd
00000380: 4755 b6bd 0cca ce3d d1d8 07be 5f36 563d
00000390: 9615 d43c 938e 66bc 2b67 36be 6b0e f2bb
000003a0: 1bd1 bebc 33e5 b8bd 8b27 cabd be2d 803d
000003b0: 45b3 d03d 6f2d 50bd 90af a03d dab8 e7bb
000003c0: 108b cd3d b55f 6cbd 9701 4d3c 64b4 96bc
000003d0: 8167 8ebd a12e 14bd 411d 59bd 3fa6 d13d
000003e0: 9047 053e bea9 173d ab90 21bd e28b dc3d
000003f0: 8630 c53d 7c41 81bd d5c9 85bb 34c5 2c3e
-0.06816437 -0.010535469 0.027484505 0.040671673 -0.06140604 0.018587122 0.074256256 -0.029693544
-0.11118529 -0.06341771 0.075704895 0.06423269 0.009858938 -0.000911508 0.09126377 -0.09224324
-0.013899401 0.02285118 -0.09410062 0.07194168 -0.004314718 0.007180401 0.0132883955 -0.03038223
-0.0002172332 -0.005324938 -0.0033579476 -0.06841436 0.03498335 0.059738874 -0.024894098 0.033556774
-0.05387294 0.06471042 0.109458335 -0.08771109 -0.021404779 0.0022714676 0.09768578 -0.045564905
-0.008746019 -0.05742684 -0.008142686 0.036901776 0.0037840384 -0.009203084 0.08922635 -0.03382826
-0.02447416 0.11121414 -0.078080975 0.07744621 -0.016852124 0.106142975 0.0457162 0.03808087
0.037568435 -0.05160355 0.0742627 0.023937933 -0.014424898 -0.044251263 0.026757026 -0.052859694
0.02299817 0.06169962 -0.07364721 -0.015295127 0.053642545 -0.018957166 0.03185969 0.0916597
-0.06738305 0.0739366 -0.08008942 -0.0013668635 -0.05111522 0.029530626 -0.0026214912 0.08386976
-0.024218928 -0.05017093 -0.051112264 0.07722219 0.020134443 0.08074629 -0.0056425943 -0.07886001
-0.08143312 0.03644535 0.0753683 -0.040590618 -0.011152718 0.039151765 -0.028522644 0.075735606
0.06629764 0.044498153 -0.0020472256 -0.047200024 0.08289582 -0.046440486 0.04696584 0.06828277
-0.08081758 -0.06361066 0.10457185 -0.0068912935 0.04691342 -0.0838857 0.038625844 0.04753078
-0.015816087 -0.05435926 -0.02290027 0.042431984 0.03778131 -0.010712119 -0.07525416 -0.06723795
0.016844291 -0.045373008 -0.01682391 0.030560397 -0.14700365 0.07807731 -0.05560737 0.05769042
0.102694504 0.050725844 0.04623567 -0.1160431 0.100997984 -0.022406643 -0.0644459 0.031219857
0.039466724 0.04469922 0.09134542 -0.099210225 0.02002566 -0.06387594 -0.10628517 0.034383286
0.025417019 0.09243925 -0.0462826 -0.04673971 0.024102736 0.029028088 0.044592008 -0.044382464
0.115779474 0.093616664 -0.016259126 -0.018140994 -0.08467752 0.086715296 -0.005012646 -0.026408976
-0.07220947 0.097671844 0.10299986 -0.13289742 -0.04112 -0.08587846 0.016331363 0.016741563
-0.035473898 -0.03163911 0.026134932 -0.09425671 -0.038899533 0.04174192 0.06894127 0.10887692
0.13835108 0.019418357 -0.109043606 -0.11096086 -0.11281067 -0.01964929 -0.13088243 0.0149628725
0.058016323 -0.051543765 -0.004586087 0.0029442105 -0.059127755 -0.026372837 -0.00144663 -0.052366786
-0.045145947 -0.09689916 0.06331315 0.0019800202 -0.054985825 -0.0046998467 0.06839973 0.11811844
0.09944814 0.06820131 -0.009000478 0.06938563 -0.027296303 0.028811349 0.036592297 -0.03957192
-0.037235696 -0.05834551 -0.025729004 0.049681336 0.037282404 -0.002952633 0.029983506 -0.08853233
-0.11606635 -0.09392209 0.042233657 0.04862276 0.032153156 0.07644697 -0.105140224 -0.08350756
-0.08902984 0.10097131 -0.13266303 0.052297946 0.0258892 -0.014072078 -0.17812793 -0.0073869727
-0.023293069 -0.09028091 -0.098708235 0.06258725 0.10190443 -0.05082458 0.07845986 -0.0070715966
0.1003629 -0.05770846 0.012512586 -0.018396564 -0.069533356 -0.03617728 -0.053006414 0.10236787
0.1301558 0.037027113 -0.039444607 0.10768868 0.09628396 -0.06311318 -0.004082898 0.16872102

fcl2.bias f4 [84]
00000000: 2af2 0abd 3590 bcbc 2c5d 51bd d6f0 94bd
00000010: f8a4 563e 97e9 89bc fe54 39bd 925d bf3c
00000020: 467b 7e3d 1533 043c b855 0e3d d071 29bc
00000030: 3d28 ad3c 03ec 98bd a2cd 053c 3753 83bd
00000040: 56d2 853d 8bf7 923d 9a3d c2bc 678c 963d
00000050: e916 c73d 9137 9abd 4984 6b3d 776e 1a3e
00000060: e8ea 5c3e bce4 ca3d aa6b 9dbd 9cb9 053c
00000070: d72b 04be 039f dabd 5f31 3cbd 9b44 f0bd
00000080: a8c1 413e 3fc0 cebd a3de 1e3d 46d0 073c
00000090: 2a12 96bd ac90 dbbc 749b 7ebd c657 2cbd
000000a0: 7197 ca3d b891 b23d aa71 e43c 90b4 d7bd
000000b0: 40fb 97bd aee1 6e3e 869f 363e 7087 813e
000000c0: f419 4f3c aa95 873d b4c9 433d a302 9ebd
000000d0: 37a8 f6bd 8879 8fbc 01c5 3c3e 9b22 e83d
000000e0: d173 61bd 502a 0fbd 7b97 bf3d 0ef0 10bc
000000f0: 6523 a0bb a396 a93d a87c 233d 59c8 8f3e
00000100: ae64 d8bc 90e5 b7bd 24e5 733e ca90 17bc
00000110: 6f9d f1bd 5f1d 733e 0b1e 36be bc87 8fbd
00000120: f38a f0bc f06d f6bc bdf3 803e 0a59 5dbc
00000130: b0cf c23e 9ba7 be3d 267e ab3c f02a 513e
00000140: d0be 1d39 910f d43c b660 37bb 67da e33d
-0.033922352 -0.023017982 -0.051114246 -0.07272498 0.20961368 -0.016835017 -0.04524707 0.023360047
0.06212928 0.0080688195 0.034749717 -0.010342076 0.021137351 -0.07466891 0.008166702 -0.06412356
0.06534259 0.07176121 -0.023711015 0.07350998 0.09721167 -0.0753013 0.057499204 0.15081201
0.21573985 0.09906909 -0.07686551 0.0081619285 -0.12907349 -0.1067486 -0.04594552 -0.117318355
0.1892153 -0.10095262 0.03878654 0.008289402 -0.07327683 -0.026802383 -0.06215997 -0.042075895
0.098921664 0.087192 0.02788623 -0.105324864 -0.07420969 0.23328277 0.17834291 0.25298643
0.012640465 0.06620343 0.04779978 -0.07715347 -0.12043803 -0.017514005 0.18434526 0.113347255
-0.05504209 -0.03495246 0.093550645 -0.008846296 -0.004887032 0.08280685 0.039913803 0.2808254
-0.026415195 -0.089793324 0.23817879 -0.009250829 -0.11797606 0.23741673 -0.17784898 -0.07008311
-0.029363131 -0.03008172 0.25185958 -0.013509998 0.38049078 0.09309312 0.020934176 0.20426536
0.0001504377 0.025886329 -0.0027981228 0.11125641

fcl3.weight f4 [10, 84]
00000000: 637a f63d 1045 be3e 5bab 70bc 62dd 4f3e
00000010: 552a bb3d b23d 873e 8027 c23d e666 d23b
00000020: 9214 683d 041f 643e 99c9 b33e 3d0d 6dbc
00000030: b654 8cbd cbf0 e13d 7322 94bd 10d2 5f3e
00000040: b216 3c3e 3b0d 5ebd 86da 81bd 74ad d6bc
00000050: 506b 0bbe b90d 8a3e 8de8 d03e 053f 9cbe
00000060: 3387 3cbe 9aa9 47be 2e87 54bc 7fe1 843e
00000070: 7e09 d3bd 264e bcbe ff3e bbbd bf82 fcbc
00000080: 7694 afbd 5e33 1f3e add2 82be 639a 883e
00000090: 3207 823e 0e6f 903d 2d9b 063e fca4 2c3e
000000a0: daa0 f6bd 1777 3dbe 3dbc 15be 154d 293e
000000b0: 1fe7 b4bd 575d 633e 59a2 003e c73b d1bd
000000c0: deb2 7fbe ab25 c9bc 308c eb3d 7ac1 9b3d
000000d0: b51b bfbd a2a4 2e3d 2c0f cd3e 2ae2 7fbe
000000e0: 5513 6f3e 1484 13be 007a ff3c f781 db3e
000000f0: 35d4 963e 3549 95be 24e0 c33d 8d47 03be
00000100: 6934 4abd 8453 84be ee1e c1be 4dda 94bd
00000110: 9414 eb3e 4ace 91be b1ca 853d 41f1 a53c
00000120: a549 1f3d 7ccf 0dbe d127 4b3c 1726 0b3c
00000130: 3a97 50be 5eba 0c3e 1a08 563e 4493 353d
00000140: 22da 35bd 1406 08be 327b d53c d959 6abe
00000150: 1891 16bd daa3 4cbe 0cee 28be 8768 003e
00000160: 51ec 67be 4f66 83bd b7ca 2dbe 6e7b 293d
00000170: 9bc5 b6bd 45b2 61bd 824e 3b3d 7642 edbb
00000180: 95ed c93d e074 c1b7 d73d 7b3e 5a4c 29bd
00000190: e9ec 343c 1500 b2bd f6b9 c23d 9a22 4dbd
000001a0: c0ff d5be 13c7 833e 6243 dbbe 2fda 19bd
000001b0: a453 0fbe a917 e33d 6a07 be3e 4def 00bc
000001c0: c38e 803e 7fd3 0c3e 12de 3c3d 97d4 af3e
000001d0: bd0a 86be 6254 053e c11e d1be a13c 97be
000001e0: 2388 823e 69dc 95bd 4503 713e 489a 4fbe
000001f0: 10f2 473e c4f0 603d 621e f9bc c9ec d43d
00000200: b02a fd3c d549 0dbe 2bbf 39be 943b d2bd
00000210: 0131 b83e 37d6 283e 9866 5e3c 4cbe e7bd
00000220: 3d55 b73e 5768 903d 3393 e8be bdaa 483e
00000230: c8fe c13e d5f5 17bc 46ca 93bd a1d4 85bd
00000240: 26a4 73bd d7b8 473e d4b3 e93c 9f31 22be
00000250: a412 ba3d e2d2 0fbd 33a0 dcbe a5b2 8c3d
00000260: 75c5 55be 5258 fbbe 322d d63e de7c 16be
00000270: cd2e 523e 0da9 b3bd c923 e6bd a005 3e3c
00000280: 69a1 e9be 8dcd af3e cfe8 08be e388 ddbd
00000290: ad8b f5bd b485 5d3e 6e82 533d 404c c9bd
000002a0: 3c53 fa3d eb89 88bd 9dd4 013e 2749 cbbd
000002b0: 27b0 b73e 4575 6abe 5b8c b13d e791 aabd
000002c0: bf2b e4bd ab6f 07be 624d b2be 1756 86bd
000002d0: f6b8 a13e 855d bebc fe85 85be 4e64 ddbd
000002e0: dcb0 0b3e deb0 7dbe de2f 44bc 2b69 673e
000002f0: b824 123e a69a 343e 3152 953e 3586 913e
00000300: c850 8e3e c6f7 37bd 3632 ee3c f9ce 38be
00000310: f0f8 173e 2dae 24bd edea 4d3e c9f5 9a3e
00000320: ade6 b3be 9b07 473e 2f65 9e3e 451c 983e
00000330: 30c0 bdbe 201c 9abe 9459 a33d 24b0 0fbd
00000340: 8ea7 f7bd 9ac3 d2bd e97e 863e fb87 f33d
00000350: 507c 99bc e499 873e 02c3 7f3e 873a b73e
00000360: 9efc 4d3e 076e bdbe a3b4 b83e c061 a63e
00000370: dd0f 1ebd dad8 223e 958a 3e3d 7869 933e
00000380: 33a6 f73d 270d c7be 9fb7 cbbd 7cbb fbbd
00000390: 439d 3abe 2179 b4be 356e 66bc 6e1b 653e
000003a0: 105a 053e 3dcd 273e 02d4 5e3d 2680 583e
000003b0: 185a 163f 992f ef3a 2c29 603c a766 9a3d
000003c0: d44c d43a 93e3 2e3e d3e8 c8bd ce4e eebd
000003d0: 8ce8 4e3e 7598 7bbe 057d 903e 85f6 633e
000003e0: 1ed5 2abd 4c08 adbe d2a6 6cbd e3d2 8d3d
000003f0: 6155 9c3d 6427 063e 58db 803c 8132 70be
0.12035062 0.37162066 -0.014689292 0.20299295 0.091389336 0.26414257 0.0948019 0.006420958
0.056660242 0.22277457 0.35114744 -0.014468488 -0.06852095 0.11032256 -0.07233133 0.21857476
0.18368033 -0.054211836 -0.06340508 -0.026205756 -0.13615155 0.26963595 0.40802422 -0.3051683
-0.1841095 -0.19498292 -0.0129716825 0.2595329 -0.10304545 -0.36778373 -0.09142875 -0.030824063
-0.085732386 0.15546939 -0.25551358 0.26680288 0.25396115 0.07052432 0.13145132 0.16859812
-0.12042399 -0.1850246 -0.14622588 0.1653331 -0.08833145 0.22203575 0.1256193 -0.1021648
-0.24970576 -0.024554094 0.11501348 0.07605262 -0.093314566 0.042637475 0.40050638 -0.24988618
0.23347218 -0.14405853 0.031186104 0.42872593 0.29458776 -0.29157415 0.09564236 -0.12820263
-0.04936639 -0.25844967 -0.3771891 -0.072682 0.45914137 -0.284777 0.06532801 0.02025664
0.038888592 -0.1384868 0.01239963 0.008492968 -0.20370188 0.13742968 0.20901528 0.044329897
-0.04439748 -0.13283569 0.02605972 -0.22885837 -0.036759466 -0.1998438 -0.16497058 0.12539874
-0.22648741 -0.06415998 -0.16971861 0.041377477 -0.08924409 -0.05510165 0.045729168 -0.007240589
0.09859768 -2.3061817e-05 0.24535309 -0.04133258 0.011042812 -0.08691422 0.095081255 -0.050081827
-0.41796684 0.2573782 -0.42824847 -0.03756159 -0.1399675 0.11088497 0.3711503 -0.007869554
0.2510892 0.13752554 0.04611022 0.3434188 -0.26180068 0.1302047 -0.40843776 -0.29538444
0.2549449 -0.073174305 0.23536403 -0.20273697 0.19525933 0.054917112 -0.030409995 0.10396726
0.030904144 -0.13797696 -0.18139331 -0.1026527 0.35974887 0.16487966 0.013574265 -0.11315593
0.3580722 0.07051151 -0.45424804 0.19596381 0.37889695 -0.0092749195 -0.07216315 -0.06534696
-0.059482716 0.19504105 0.028528132 -0.15839241 0.09085587 -0.035113223 -0.43090972 0.06870011
-0.20876105 -0.4909082 0.41831356 -0.1469607 0.20525666 -0.08772478 -0.11237294 0.011598021
-0.4563096 0.3433651 -0.1337006 -0.10817125 -0.11989532 0.21633035 0.05163806 -0.09828997
0.12222907 -0.06666931 0.12678762 -0.09926062 0.3587658 -0.22896297 0.08669349 -0.0832861
-0.111411564 -0.13226192 -0.34824663 -0.06559389 0.31586426 -0.023237953 -0.2607879 -0.10810147
0.13641685 -0.247745 -0.011974303 0.22598712 0.1427182 0.17637119 0.2916427 0.28422704
0.27796006 -0.04491403 0.029076677 -0.18047704 0.14841056 -0.04020517 0.20109148 0.30265644
-0.3513693 0.19436495 0.30936572 0.29709068 -0.3706069 -0.30099583 0.0797607 -0.03508009
-0.120925054 -0.10291214 0.262687 0.118911706 -0.018736035 0.26484597 0.24976733 0.3578684
0.20115897 -0.36998007 0.36075315 0.32496452 -0.038589347 0.15903035 0.04651888 0.28791404
0.12092247 -0.38877222 -0.09947132 -0.12291619 -0.18224053 -0.35248664 -0.014064361 0.22373745
0.13022637 0.16386886 0.054401405 0.21142635 0.5873122 0.0018248438 0.013681691 0.07539111
0.0016197213 0.17079 -0.09810033 -0.116361246 0.20205897 -0.24569876 0.28220382 0.22262008
-0.04170715 -0.33795393 -0.05777628 0.06924989 0.07633472 0.13100964 0.015729591 -0.23456766

fcl3.bias f4 [10]
00000000: 9955 8dbe fb83 c8be 6ef7 4a3d fe1f d93d
00000010: bfd0 033f c1ec 4abc 886c 8a3e 56f7 54bd
00000020: 2317 42bd d048 6bbe
-0.27604368 -0.39163193 0.049552374 0.10601805 0.51490396 -0.012385548 0.27035928 -0.05199369
-0.047385346 -0.22976995
