src/trained_cnn.pth (torch, 368624 bytes, 10 tensors)

conv1.weight f4 [12, 3, 5, 5]
-0.00755943 -0.05366077 -0.07482722 -0.12900306 0.016990691 0.09775002 0.081941895 0.05810556
-0.00755687 0.08980675 0.17895502 0.382448 0.16728407 0.08003773 -0.0348267 0.19059902
0.31836212 0.27274245 0.14974295 0.025145462 0.0224823 0.11106951 0.34400457 0.30086106
0.17257218 0.0038193248 -0.024153233 -0.141699 0.04942756 -0.047933504 0.09168409 0.13463186
-0.043793485 -0.037781607 0.004237618 0.10239914 0.1926524 0.04212844 -0.060191825 -0.083199024
0.018310448 0.28580767 0.25068265 0.023824913 -0.12286105 0.038194306 0.20367475 0.24327098
0.016598433 -0.068519086 0.2057741 0.19545342 0.086311184 0.013902589 -0.21156968 0.16019163
0.2930883 0.08322377 -0.10908209 -0.08089965 0.26218903 0.32160473 0.10768204 -0.11553049
-0.29312795 0.15566857 0.33334622 0.07884669 -0.32797277 -0.45529798 -0.11922242 0.1749128
0.049702387 -0.034166403 -0.32574943 -0.094334975 0.4740184 -0.22951335 0.039195508 -0.10841806
-0.3304158 0.8877466 -0.73384595 0.14693183 -0.002410855 -0.46582082 1.41993 -1.0301713
-0.041713294 0.26458058 -0.29675952 1.1443212 -0.9546698 -0.16038214 0.32300857 -0.14618592
0.6180941 -0.61078733 -0.15886727 0.013820404 -0.26330233 0.4231414 -0.6226745 0.10420437
0.15335152 -0.4556173 0.9930922 -0.8739652 0.1871754 0.2201092 -0.59651196 1.2215964
-1.2274423 0.11317739 0.1391768 -0.5938963 1.2314553 -0.9126676 0.016679153 0.4205178
-0.05430245 0.7227048 -0.61623657 -0.06470208 0.29724056 -0.09631505 0.38911515 -0.41539946
0.2240612 -0.07752292 -0.5228201 0.9988985 -0.7772347 0.34862506 -0.060571626 -0.6713219
1.3574995 -0.96991444 0.32658303 0.07957005 -0.56506115 1.132624 -0.7022461 0.10956946
0.11730313 -0.344657 0.5815649 -0.30931374 0.07008242 -0.09399967 -0.52048945 -0.3790285
-0.22452196 -0.04246948 -0.11731282 -0.6350212 -0.106326 0.14016205 0.17479615 -0.016154839
-0.5527991 0.22681922 0.45898357 0.23280688 0.11858406 -0.33724126 0.33223337 0.492252
0.33459672 0.20566522 -0.15052035 0.10152954 0.3276129 0.08951881 0.13135275 -0.26273504
0.15325913 0.325196 0.25458395 -0.11094348 -0.39803734 0.3727758 0.37610254 0.1967
-0.14636932 -0.51770025 0.31023493 0.55381393 0.07942285 -0.44714943 -0.64146477 0.028069036
0.38063893 -0.03785783 -0.5404906 -0.376014 0.17095286 0.20320342 -0.083099835 -0.48739222
0.010909025 0.30989885 0.4889816 0.24978252 -0.1481245 -0.16702396 0.43718064 0.58147305
-0.064357735 -0.5236399 -0.39769214 0.3759333 0.4741033 -0.24907143 -0.6468467 -0.34470427
0.39261672 0.40198147 -0.34898564 -0.66543585 -0.032475915 0.41655934 0.33617008 -0.33301237
-0.47715524 0.032649 0.10806396 0.0066972245 0.02762349 -0.07000678 -0.18732549 -0.1409171
-0.14946604 -0.13496919 -0.19844784 -0.21989077 -0.1501315 -0.011480713 -0.13975528 -0.03809251
-0.025647897 -0.27888903 -0.029872542 -0.114134215 -0.051430404 0.018725011 -0.17680106 -0.0077615436
-0.0784959 -0.0499051 0.24641897 0.38601318 0.3555163 0.15713872 0.15682481 -0.08520984
00000000: 18b5 f7bb 65cb 5bbd 033f 99bd 6119 04be
00000010: 1030 8b3c 2a31 c83d 27d1 a73d 1800 6e3d
00000020: 9f9f f7bb 9aec b73d fc3f 373e 39d0 c33e
00000030: 844c 2b3e d2ea a33d 71a6 0ebd 642c 433e
00000040: 5c00 a33e e6a4 8b3e 3756 193e dbfd cd3c
00000050: cd2c b83c 6978 e33d 5e21 b03e 760a 9a3e
00000060: c3b6 303e a34d 7a3b 00dd c5bc 8b19 11be
00000070: 8e74 4a3d ec55 44bd dec4 bb3d efdc 093e
00000080: cc60 33bd e3c0 1abd b7db 8a3b a4b6 d13d
00000090: ac46 453e df8e 2c3d b48b 76bd 4064 aabd
000000a0: cbff 953c 6255 923e 7a59 803e 772c c33c
000000b0: 939e fbbd a271 1c3d 1d90 503e 071c 793e
000000c0: 70f9 873c bc53 8cbd 72b6 523e f124 483e
000000d0: ebc3 b03d afc7 633c b9a5 58be 4609 243e
000000e0: ab0f 963e 3971 aa3d 6e66 dfbd b7ae a5bd
000000f0: a43d 863e 60a9 a43e 6788 dc3d 409b ecbd
00000100: de14 96be 9567 1f3e 5bac aa3e 607a a13d
00000110: 0cec a7be d11c e9be e22a f4bd 571c 333e
00000120: bb94 4b3d 12f2 0bbd a1c8 a6be b232 c1bd
00000130: 8ab2 f23e 8c05 6bbe 788b 203d 4a0a debd
00000140: 422c a9be 5c43 633f 54dd 3bbf 4c75 163e
00000150: 6fff 1dbb 1180 eebe 44c0 b53f a7dc 83bf
00000160: 8fdb 2abd 1b77 873e ddf0 97be 1e79 923f
00000170: 3d65 74bf 373b 24be 6161 a53e c3b1 15be
00000180: 6a3b 1e3f 8f5c 1cbf 1aae 22be fa6e 623c
00000190: 90cf 86be fda5 d83e 9967 1fbf 1a69 d53d
000001a0: 2e08 1d3e ac46 e9be 4a3b 7e3f 2fbc 5fbf
000001b0: e8aa 3f3e 4e64 613e 02b5 18bf 455d 9c3f
000001c0: d41c 9dbf 8cc9 e73d 5d84 0e3e 9709 18bf
000001d0: 54a0 9d3f 95a4 69bf b8a2 883c 1c4e d73e
000001e0: 3f6c 5ebd 2f03 393f aec1 1dbf 8682 84bd
000001f0: ea2f 983e d340 c5bd 1a3a c73e 3daf d4be
00000200: 4d70 653e 56c4 9ebd 8ad7 05bf d0b7 7f3f
00000210: daf8 46bf fc7e b23e f419 78bd c1db 2bbf
00000220: 8bc2 ad3f 504c 78bf e435 a73e 9ff5 a23d
00000230: d9a7 10bf d3f9 903f 67c6 33bf f465 e03d
00000240: a03c f03d e276 b0be 70e1 143f 5f5e 9ebe
00000250: 5f87 8f3d e682 c0bd cc3e 05bf 0610 c2be
00000260: 16e9 65be 7af4 2dbd b441 f0bd c090 22bf
00000270: 72c1 d9bd a486 0f3e c3fd 323e 2757 84bc
00000280: 3e84 0dbf 4c43 683e e5ff ea3e ed64 6e3e
00000290: 33dc f23d e3aa acbe 7e1a aa3e 7408 fc3e
000002a0: 4350 ab3e e799 523e 0222 1abe b8ee cf3d
000002b0: e1bc a73e a355 b73d 5681 063e 3585 86be
000002c0: f6ef 1c3e 1780 a63e d458 823e 5636 e3bd
000002d0: 8dcb cbbe 78dc be3e 8390 c03e ba6b 493e
000002e0: d7e1 15be 0188 04bf 1dd7 9e3e c0c6 0d3f
000002f0: 72a8 a23d c5f0 e4be 0937 24bf 09f1 e53c
00000300: 1be3 c23e d010 1bbd 985d 0abf e884 c0be
00000310: 440e 2f3e 8f14 503e 3f30 aabd 798b f9be
00000320: c4bb 323c 10ab 9e3e cc5b fa3e fdc6 7f3e
00000330: f3ad 17be 5408 2bbe 24d6 df3e 6bdb 143f
00000340: fdcd 83bd 440d 06bf 4e9e cbbe 547a c03e
00000350: abbd f23e 950c 7fbe bf97 25bf 147d b0be
00000360: 0f05 c93e 84d0 cd3e 3fae b2be 015a 2abf
00000370: 7705 05bd 4447 d53e 7c1e ac3e 9980 aabe
00000380: b14d f4be f5ba 053d a350 dd3d 6474 db3b
00000390: a84a e23c b75f 8fbd 41d2 3fbe 924c 10be
000003a0: a00d 19be 5d35 0abe e935 4bbe 0c2b 61be
000003b0: 12bc 19be 9a19 3cbc 021c 0fbe e406 1cbd
000003c0: 8a1b d2bc 8bca 8ebe 43b7 f4bc 33bf e9bd
000003d0: b0a8 52bd 3265 993c 560b 35be 8c54 febb
000003e0: 75c2 a0bd 4a69 4cbd 4155 7c3e 85a3 c53e
000003f0: 3c06 b63e f9e8 203e af96 203e 7f82 aebd

conv1.bias f4 [12]
0.017668195 -0.12012674 -0.3076552 -0.49117205 -0.65640444 -0.38722324 -0.2251403 -0.005462828
0.9058874 -0.11515062 -0.5087929 0.334534
00000000: e4bc 903c 0205 f6bd fb84 9dbe e77a fbbe
00000010: 1f0a 28bf 2042 c6be 2e8b 66be 8601 b3bb
00000020: 3de8 673f 17d4 ebbd 4040 02bf 0a48 ab3e

conv2.weight f4 [24, 12, 5, 5]
0.2750447 0.15655808 -0.059403032 -0.034098625 0.26181573 -0.06578801 -0.032518998 -0.060226627
-0.3888741 -0.30820155 0.072501406 -0.12730162 -0.05016881 -0.090630256 -0.21807696 0.18163942
0.13436417 0.2222353 0.25419417 -0.11129465 -0.0061159083 0.10098523 -0.057792637 -0.043984428
-0.18001725 -0.0026764516 -0.20066027 -0.008075321 0.09556057 0.096017204 -0.16595319 -0.40164965
-0.39000094 -0.30239668 -0.13631815 -0.24097212 -0.26825213 -0.47345674 -0.3720133 -0.44352943
-0.077672385 -0.18607523 -0.15672377 -0.2257862 -0.1724344 -0.036259495 -0.09071521 -0.040321503
-0.29928485 -0.2113797 -0.11239346 -0.08861475 -0.16796936 -0.0036496622 0.013235296 -0.15302126
-0.21678166 -0.33306342 -0.24366957 -0.07952433 0.06957723 -0.25807062 -0.1970712 -0.18073468
-0.03773958 0.029913807 -0.14624788 0.013530833 0.06916789 -0.04155581 -0.18138048 -0.08137768
-0.043685667 0.024560511 0.054201275 0.087341964 0.052859727 0.13375992 0.23535748 0.20173983
0.08641667 -0.17264779 -0.2925089 -0.17726585 0.09706913 0.03325024 -0.05444546 -0.09682117
-0.16382374 0.07028524 -0.17243303 -0.19108298 -0.12963037 -0.22400951 -0.12504874 -0.11988786
-0.06748852 -0.081156455 -0.21034001 -0.15808114 -0.12693179 -0.14778635 -0.054741815 -0.14946333
-0.06491756 -0.1813381 0.027187373 0.05504196 -0.2761488 -0.21919209 0.036348365 0.12408351
-0.06871146 -0.04503664 -0.0067935535 0.18968517 0.035086036 -0.07089861 0.017690364 0.06298157
0.036000755 -0.07031532 -0.12730196 -0.11764585 0.13421965 0.1320961 -0.18958968 0.017878773
-0.010105514 -0.09924668 0.23430535 0.13867523 0.05857808 -0.19022232 0.020281998 0.1105919
-0.021778526 -0.031534113 -0.07706612 -0.17791145 0.06133498 -0.19702096 0.08701782 0.20896865
-0.05887958 -0.15485637 0.23154023 0.088216916 0.18057537 0.31341833 0.14472096 0.14195289
-0.1508218 -0.026029447 -0.04316517 0.18837248 0.051409498 -0.0573966 0.01349442 0.21100312
0.27870667 0.38783756 0.2983151 0.18642889 0.12397013 0.23825076 -0.024201576 0.38515824
0.2921456 0.29607004 0.01507925 -0.12047339 -0.105627514 0.21391705 -0.023330295 -0.151036
0.08625822 0.049557228 0.06939929 0.02013434 0.12312368 -0.014330763 -0.1700837 0.043374747
-0.115089245 -0.062852494 -0.08612036 -0.14914341 -0.17222543 -0.0011417096 -0.064303026 -0.12682745
-0.16533017 -0.024676237 -0.0358366 0.023192184 0.082469694 -0.014368176 0.01592842 0.054707885
0.009774874 -0.014226049 -0.156624 -0.14913268 0.0056695733 0.23681402 0.19362071 0.0120912455
-0.104838535 -0.08077487 0.08891525 0.13036314 0.18620703 0.13987818 0.110379405 -0.0005054054
0.050115496 0.122956574 0.19090062 0.22890377 0.27252007 0.21576396 0.14191233 0.1903271
0.25317597 -0.11642225 0.024781615 0.036857165 -0.08381188 0.08904449 -0.13837238 0.014953288
-0.09065252 0.037542567 0.13228609 -0.06885369 0.11317878 0.1491992 -0.05841391 0.07743417
0.13979016 0.17004786 -0.01463815 -0.065635726 0.113283165 -0.0923435 0.1331842 0.14717089
0.014085841 -0.05150303 0.16612266 0.1832583 0.028262151 -0.012975693 -0.074132636 -0.0824602
00000000: a9d2 8c3e c350 203e 9850 73bd 00ab 0bbd
00000010: b60c 863e ddbb 86bd a432 05bd 32b0 76bd
00000020: 821a c7be 98cc 9dbe 9e7b 943d 5b5b 02be
00000030: cf7d 4dbd 5b9c b9bd 914f 5fbe afff 393e
00000040: c396 093e a791 633e bd25 823e 73ee e3bd
00000050: f567 c8bb 58d1 ce3d f9b7 6cbd 0429 34bd
00000060: 7156 38be 6867 2fbb e379 4dbe 5a4e 04bc
00000070: 43b5 c33d aba4 c43d a2ef 29be 06a5 cdbe
00000080: 34ae c7be bdd3 9abe fc96 0bbe 65c1 76be
00000090: 5858 89be ec68 f2be 8778 bebe 4a16 e3be
000000a0: b312 9fbd 818a 3ebe 327c 20be 7f34 67be
000000b0: a592 30be d684 14bd e5c8 b9bd 2928 25bd
000000c0: dd3b 99be ec73 58be 8b2e e6bd a67b b5bd
000000d0: 2900 2cbe 2c2f 6fbb dbd8 583c 9bb1 1cbe
000000e0: 03fc 5dbe 4a87 aabe 8484 79be a7dd a2bd
000000f0: 827e 8e3d d521 84be 08cd 49be 8312 39be
00000100: d194 1abd cd0d f53c 01c2 15be 6db0 5d3c
00000110: e5a7 8d3d 6d36 2abd cebb 39be 57a9 a6bd
00000120: beef 32bd 2033 c93c 2802 5e3d 58e0 b23d
00000130: 7183 583d 5cf8 083e 8d01 713e e394 4e3e
00000140: 39fb b03d 95ca 30be bac3 95be 2e85 35be
00000150: 2ecc c63d 6731 083d 3402 5fbd 2d4a c6bd
00000160: 69c1 27be b5f1 8f3d 4992 30be 42ab 43be
00000170: d3bd 04be c062 65be c70c 00be c487 f5bd
00000180: 6c37 8abd 5b35 a6bd 5f63 57be 06e0 21be
00000190: 68fa 01be 4e55 17be f438 60bd ea0c 19be
000001a0: 7ff3 84bd b2b0 39be 0eb8 de3c ae73 613d
000001b0: 6063 8dbe e473 60be 06e2 143d 7f1f fe3d
000001c0: 98b8 8cbd 5778 38bd 759c debb d43c 423e
000001d0: 60b6 0f3d 4a33 91bd 62eb 903c 7bfc 803d
000001e0: 8775 133d 7a01 90bd 725b 02be 4ff0 f0bd
000001f0: e070 093e 3344 073e cc23 42be 8176 923c
00000200: 9991 25bc d841 cbbd beed 6f3e e100 0e3e
00000210: 92ef 6f3d a4c9 42be 6f26 a63c 027e e23d
00000220: e168 b2bc ea29 01bd d8d4 9dbd 6b2e 36be
00000230: 633a 7b3d ddbf 49be 6636 b23d e1fb 553e
00000240: b72b 71bd ab92 1ebe e218 6d3e 12ab b43d
00000250: c0e8 383e 5e78 a03e bb31 143e 195c 113e
00000260: 0871 1abe b53b d5bc f6cd 30bd b7e4 403e
00000270: c492 523d b218 6bbd b317 5d3c 3411 583e
00000280: a4b2 8e3e a592 c63e c2bc 983e 37e7 3e3e
00000290: 0de4 fd3d 02f8 733e 6242 c6bc 7633 c53e
000002a0: 1c94 953e 7e96 973e f50e 773c c1ba f6bd
000002b0: 3d53 d8bd 120d 5b3e 2d1f bfbc 2ea9 1abe
000002c0: 26a8 b03d 85fc 4a3d 3721 8e3d c5f0 a43c
000002d0: 4528 fc3d 94cb 6abc 6c2a 2ebe b8a9 313d
000002e0: e9b3 ebbd cfb8 80bd df5f b0bd 0db9 18be
000002f0: dd5b 30be 6ba5 95ba 4eb1 83bd 0edf 01be
00000300: 504c 29be d225 cabc 66c9 12bd 89fd bd3c
00000310: dfe5 a83d 8068 6bbc 517c 823c 6015 603d
00000320: cb26 203c 6014 69bc 0b62 20be 3db6 18be
00000330: d4c7 b93b 607f 723e 8244 463e 5c1a 463c
00000340: 96b5 d6bd 4c6d a5bd 3319 b63d ea7d 053e
00000350: 0ead 3e3e 3a3c 0f3e 990e e23d 2f7d 04ba
00000360: e845 4d3d a8d0 fb3d 747b 433e c065 6a3e
00000370: c087 8b3e 3af1 5c3e 7751 113e 1be5 423e
00000380: 48a0 813e ca6e eebd d002 cb3c 8af7 163d
00000390: 90a5 abbd f55c b63d 7db1 0dbe a3fe 743c
000003a0: 07a8 b9bd 3cc6 193d 0176 073e 2a03 8dbd
000003b0: 47ca e73d adc7 183e 6d43 6fbd ce95 9e3d
000003c0: 2725 0f3e 0721 2e3e dad4 6fbc 066c 86bd
000003d0: 0101 e83d 971e bdbd 7061 083e f7b3 163e
000003e0: 4dc8 663c d7f4 52bd 0f1c 2a3e 10a8 3b3e
000003f0: 0786 e73c 0098 54bc dad2 97bd e5e0 a8bd

conv2.bias f4 [24]
0.36226472 0.12872943 -0.4612185 0.52862704 -0.0061574006 0.4372387 -0.38164163 -0.27076662
-0.65096796 -0.49226695 -0.4394696 -0.280489 0.46723095 -0.37202612 -1.7983037 0.25229743
-0.22222227 0.47702587 -0.36243364 -0.19730611 0.09527767 0.24004227 0.6173327 0.52443004
00000000: c37a b93e a6d1 033e d524 ecbe 1a54 073f
00000010: 05c4 c9bb c0dd df3e 8866 c3be eca1 8abe
00000020: d6a5 26bf 6a0a fcbe 2902 e1be 419c 8fbe
00000030: e538 ef3e 357a bebe d12e e6bf 212d 813e
00000040: 3c8e 63be bc3c f43e e790 b9be 9d0a 4abe
00000050: f020 c33d a4cd 753e 8409 1e3f 0c41 063f

fcl1.weight f4 [120, 600]
-0.056065105 0.060246613 -0.14256662 0.010763548 -0.094534464 -0.001792442 -0.008206009 0.053941
0.20646167 0.029431362 0.06269678 -0.035774134 0.09032286 0.032287702 0.17773125 0.0063580424
-0.033146266 -0.010289148 -0.03250182 -0.027743882 -0.037946656 -0.08325666 -0.07847745 -0.12549017
0.013264368 0.052235644 0.021036383 0.022450678 -0.066675924 -0.037986193 0.011453701 0.02155022
0.011858775 -0.064249076 -0.026274394 -0.024652762 0.008413681 -0.040404323 -0.021594921 -0.024659054
-0.0052154767 0.03292185 0.040885866 -0.040761173 0.027764518 -0.07282666 -0.08336543 -0.030047944
-0.062147345 0.0044789957 0.12169088 0.10732487 -0.015253995 -0.11294729 -0.017529633 -0.019613834
0.08435558 0.12694336 0.1378574 0.028113915 -0.05919715 0.04365778 0.14739244 0.10834844
-0.06613239 -0.009139383 -0.10282196 -0.07659203 -0.0026894533 -0.09699854 -0.10869048 0.020793114
-0.06266908 0.07786295 0.03637937 -0.15278374 -0.022483818 -0.01609677 0.0034380718 -0.103471264
0.037126616 -0.020153636 0.06814155 0.022204505 0.06618924 -0.10036178 0.11702352 0.13211817
0.09258126 -0.030581705 -0.25733098 0.054110285 0.007629141 -0.06491575 -0.04830607 -0.020812694
0.14163047 0.0872345 -0.054304473 0.0040180315 0.09297614 0.041870143 -0.0112371 -0.22939159
-0.10502202 0.023187218 -0.10550006 0.0021954505 -0.18400908 -0.14346361 0.09536706 0.03841911
-0.04349792 0.027292792 0.039738968 0.010233024 0.04090604 0.09513566 0.008149183 0.14544913
0.008343719 0.051961686 -0.0065216906 0.016739162 0.0419577 -0.034103315 -0.081685565 0.06389896
0.031315584 0.3005178 0.07189256 -0.0106805265 0.001922899 0.00287281 0.034757864 -0.10710865
-0.006312484 -0.054912593 -0.1133581 -0.04510594 0.10462899 -0.004581051 0.1419684 -0.023704119
0.07146658 0.103623 0.008680695 0.09434868 0.047331817 -0.014916347 -0.011493274 0.010751428
-0.024408212 -0.112945795 0.037158724 0.073973894 0.13372755 0.1008818 -0.07493382 -0.028071646
0.111695744 0.016868975 0.013104779 -0.12267452 -0.0015806492 0.08727712 -0.03321378 0.014607176
-0.0154064605 0.01958866 0.04006862 0.045222 0.09656377 -0.058225464 -0.017264094 -0.10790942
0.010213872 0.111489534 -0.13529196 0.029094059 -0.0006100515 0.0022620757 -0.017319923 0.040718973
-0.07523421 -0.13809599 0.17399338 0.017620092 0.07403343 0.039267812 -0.095895216 -0.08540028
0.09175142 0.0714377 -0.09226254 -0.12103467 0.083674826 0.12001199 0.13413341 0.026644152
-0.08739981 0.07967496 -0.034742553 -0.07628841 -0.0045673884 0.026838955 0.1187002 -0.081496336
0.024436254 -0.11344931 -0.06805241 0.02643621 -0.022745136 0.08705128 0.011752747 0.028130382
0.093388215 0.057955924 -0.13256402 -0.15169716 -0.034870513 -0.005589662 -0.07379553 -0.19692646
-0.24364056 -0.012247043 0.05096763 0.063193254 -0.05229642 0.013092159 0.008518545 0.00023014907
-0.07415539 0.011748677 0.07737892 -0.09692823 -0.06434058 0.06923516 0.01905918 0.04364944
-0.10908172 -0.019815343 0.09966005 -0.0638506 0.03336566 -0.09565894 0.010138261 0.025357552
0.10296532 0.2513258 0.010143586 0.029085584 -0.1706785 0.0010194776 -0.061688907 0.07747598
00000000: 86a4 65bd 27c5 763d fcfc 11be 9859 303c
00000010: 499b c1bd 60f0 eaba 7f72 06bc 3df1 5c3d
00000020: b06a 533e 0a1a f13c 2b67 803d e687 12bd
00000030: 31fb b83d 1c40 043d 2eff 353e 2057 d03b
00000040: 61c4 07bd d193 28bc a120 05bd 2347 e3bc
00000050: f46d 1bbd 7882 aabd c9b8 a0bd 7f80 00be
00000060: cb52 593c 0bf5 553d 7e54 ac3c 7cea b73c
00000070: 638d 88bd 6997 1bbd 4ea8 3b3c 168a b03c
00000080: 4f4b 423c 0595 83bd 663d d7bc 97f4 c9bc
00000090: 89d9 093c 017f 25bd d5e7 b0bc c901 cabc
000000a0: 97e6 aabb 10d9 063d f077 273d 30f5 26bd
000000b0: 6a72 e33c 2526 95bd 7fbb aabd 1b27 f6bc
000000c0: 378e 7ebd 8ac4 923b 1139 f93d 24cd db3d
000000d0: e4eb 79bc e950 e7bd 4e9a 8fbc 31ad a0bc
000000e0: 9ec2 ac3d 71fd 013e 7e2a 0d3e 274f e63c
000000f0: b678 72bd 80d2 323d 0bee 163e c9e5 dd3d
00000100: 6b70 87bd 5abd 15bc 5294 d2bd 48dc 9cbd
00000110: 8a41 30bb 2ca7 c6bd 1d99 debd 5256 aa3c
00000120: a658 80bd 9c76 9f3d 8902 153d 5773 1cbe
00000130: fc2f b8bc 60dd 83bc 4651 613b bee8 d3bd
00000140: 1412 183d 3d19 a5bc cc8d 8b3d 39e6 b53c
00000150: 398e 873d 7a8a cdbd 07aa ef3d fc49 073e
00000160: 3e9b bd3d 7c86 fabc e3c0 83be bfa2 5d3d
00000170: e0fd f93b 8cf2 84bd 96dc 45bd 627f aabc
00000180: 9407 113e 00a8 b23d 5e6e 5ebd b1a9 833b
00000190: 466a be3d 0780 2b3d d01b 38bc a1e5 6abe
000001a0: c915 d7bd 1ff3 bd3c 6a10 d8bd 8ce1 0f3b
000001b0: e06c 3cbe 20e8 12be ce4f c33d 5b5d 1d3d
000001c0: e02a 32bd 2295 df3c 54c5 223d 6aa8 273c
000001d0: 188d 273d 7cd6 c23d 2784 053c 9ef0 143e
000001e0: 18b4 083c c7d5 543d e8b3 d5bb 9120 893c
000001f0: d6db 2b3d ebaf 0bbd c34a a7bd 75dd 823d
00000200: c544 003d 78dd 993e 683c 933d 60fd 2ebc
00000210: c909 fc3a c145 3c3b 435e 0e3d c85b dbbd
00000220: f4d8 cebb 07ec 60bd 4b28 e8bd 02c1 38bd
00000230: b947 d63d a41c 96bb 2a60 113e 242f c2bc
00000240: 125d 923d 4c38 d43d 7939 0e3c e139 c13d
00000250: 02df 413d b263 74bc 494e 3cbc c226 303c
00000260: bbf3 c7bc 2050 e7bd bf33 183d a07f 973d
00000270: e0ef 083e 1e9b ce3d e776 99bd 82f6 e5bc
00000280: bdc0 e43d ce30 8a3c 6db5 563c c73c fbbd
00000290: c92d cfba 59be b23d 2c0b 08bd f052 6f3c
000002a0: 616b 7cbc 6678 a03c fe1e 243d b43a 393d
000002b0: 3ac3 c53d d37d 6ebd 6e6d 8dbc 9dff dcbd
000002c0: 1658 273c a054 e43d fa89 0abe aa56 ee3c
000002d0: ddeb 1fba 553f 143b 83e2 8dbc f0c8 263d
000002e0: 6514 9abd 0969 0dbe 522b 323e 0358 903c
000002f0: d79e 973d 49d7 203d b664 c4bd 58e6 aebd
00000300: 2be8 bb3d ee4d 923d 24f4 bcbd 06e1 f7bd
00000310: b55d ab3d d9c8 f53d 455a 093e d644 da3c
00000320: acfe b2bd a02c a33d 354e 0ebd 193d 9cbd
00000330: 08aa 95bb 5edd db3c 1719 f33d 8de7 a6bd
00000340: 8a2e c83c 1d58 e8bd 105f 8bbd c090 d83c
00000350: 0254 babc f147 b23d 988e 403c b071 e63c
00000360: 5242 bf3d 3163 6d3d ddbe 07be 8056 1bbe
00000370: 62d4 0ebd 7c29 b7bb 1c22 97bd 17a7 49be
00000380: e97c 79be d2a7 48bc 6fc3 503d 776b 813d
00000390: c534 56bd 7f80 563c 5e91 0b3c 2c54 7139
000003a0: c8de 97bd 867d 403c d778 9e3d 4f82 c6bd
000003b0: fec4 83bd 2acb 8d3d ff21 9c3c c1c9 323d
000003c0: 3d66 dfbd c953 a2bc 911a cc3d 1ac4 82bd
000003d0: 6eaa 083d d6e8 c3bd f31a 263c a4ba cf3c
000003e0: 7bdf d23d c6ad 803e 4931 263c e444 ee3c
000003f0: 58c6 2ebe fe9f 853a 82ad 7cbd baab 9e3d

fcl1.bias f4 [120]
-0.17896 0.1172248 0.22368957 0.084019445 0.09178577 0.06941279 0.047118038 0.21746024
-0.017535511 -0.011533451 0.02651316 -0.03346301 0.048558947 -0.038164396 -0.022227427 -0.019998202
-0.019361196 0.07636132 0.03222563 0.09523811 -0.07962119 -0.080453105 0.015990969 -0.09645019
-0.05207474 -0.064991765 -0.19921885 -0.043599933 0.084082544 0.0060545704 0.03962357 0.17236653
0.07759698 0.010274717 0.082251005 -0.00715529 -0.058574915 -0.1428556 -0.054410923 -0.026686082
-0.0028371203 -0.11315525 -0.022070138 0.020345341 -0.20059155 -0.011135724 0.010090483 0.12684022
0.22078447 0.009681867 -0.020345386 -0.11721119 0.006597405 0.1443562 -0.023760997 -0.0101455115
0.031520825 -0.01732871 -0.046070546 0.0074727996 0.00048833236 0.07529387 -0.048784528 -0.1798092
0.11544947 0.01577221 -0.101997755 -0.053868886 0.21797404 0.035614103 0.11016241 0.016075112
0.16405173 0.30208063 -0.07784772 -0.11985129 0.0031635216 -0.014490247 0.016478293 0.010643997
-0.12033909 -0.14903907 0.016275555 0.04919266 0.03128592 -0.0026941642 0.110595785 0.13333553
-0.04638144 -0.0036861484 0.08920252 0.19289096 0.11225542 0.021983292 0.15184212 -0.009329542
-0.046661604 0.07358739 -0.12226188 0.072504774 0.13561401 0.1328896 -0.047675278 -0.09704541
-0.08989979 0.17653325 0.21467155 0.14825973 0.04401315 -0.061845582 0.054041177 -0.14415646
0.088483 -0.08361434 0.058349334 -0.0021833095 -0.0077357297 -0.10388032 0.14173889 -0.14014906
00000000: 4a41 37be 8e13 f03d e10e 653e 6312 ac3d
00000010: 2efa bb3d 4b28 8e3d d8fe 403d e6ad 5e3e
00000020: a2a6 8fbc cdf6 3cbc 2032 d93c 8210 09bd
00000030: bfe5 463d 4552 1cbd 4b16 b6bc 45d3 a3bc
00000040: 5f9b 9ebc 5363 9c3d 06ff 033d 330c c33d
00000050: 6f10 a3bd 99c4 a4bd 7eff 823c ad87 c5bd
00000060: 534c 55bd 671a 85bd 0700 4cbe d895 32bd
00000070: 7833 ac3d 6b65 c63b 534c 223d da80 303e
00000080: 2aeb 9e3d 4957 283c 3773 a83d ec76 eabb
00000090: 40ec 6fbd bd48 12be fddd 5ebd c59c dabc
000000a0: fbee 39bb f1bd e7bd 6fcc b4bc 46ab a63c
000000b0: df67 4dbe 9d72 36bc 8e52 253c 67e2 013e
000000c0: 5315 623e b2a0 1e3c 5eab a6bc 6c0c f0bd
000000d0: 0b2f d83b 1dd2 133e 6ca6 c2bc 5c39 26bc
000000e0: fb1b 013d f0f4 8dbc 78b4 3cbd 63de f43b
000000f0: 6e03 003a ac33 9a3d 49d2 47bd e71f 38be
00000100: c670 ec3d b934 813c 33e4 d0bd 9fa5 5cbd
00000110: 9634 5f3e 18e0 113d d49c e13d f4af 833c
00000120: 2dfd 273e 50aa 9a3e a06e 9fbd 9874 f5bd
00000130: 1653 4f3b 8068 6dbc 7cfd 863c 2964 2e3c
00000140: 5774 f6bd b39d 18be 5054 853c 3e7e 493d
00000150: aa25 003d 9390 30bb 0b80 e23d 1c89 083e
00000160: 77fa 3dbd 4f93 71bb d0af b63d 3585 453e
00000170: 2be6 e53d 4e16 b43c 807c 1b3e efda 18bc
00000180: 3d20 3fbd fcb4 963d 7064 fabd 627d 943d
00000190: 66de 0a3e 3614 083e 2747 43bd bebf c6bd
000001a0: 621d b8bd 22c5 343e dcd2 5b3e 66d1 173e
000001b0: 2247 343d cb51 7dbd 485a 5d3d c09d 13be
000001c0: 9336 b53d ff3d abbd b6ff 6e3d db15 0fbb
000001d0: 017c fdbb 35bf d4bd 0024 113e 3c83 0fbe

fcl2.weight f4 [84, 120]
0.088637486 0.0065273917 0.02990414 -0.081518956 -0.045684785 -0.015836542 0.007492195 0.11744162
-0.08508144 -0.01451777 0.13842753 0.050070725 0.020875731 0.00559659 -0.05014374 -0.075478114
0.13850343 -0.07569769 -0.10701416 0.013792338 0.019106574 0.14726482 0.07028674 -0.14245692
0.02728262 -0.062676966 -0.05976991 0.042159174 -0.14927663 0.008996678 -0.08247533 0.09715008
-0.026647208 0.023864249 -0.07648412 -0.06109082 -0.061183516 0.2313326 -0.011755797 -0.0690847
0.034192905 -0.05018964 0.05789944 -0.015183702 -0.059035193 -0.09758555 -0.14373359 -0.021231247
0.039352104 -0.007868437 -0.090149164 -0.11325558 -0.05081977 0.0012941054 -0.061323535 0.0572205
-0.07068517 -0.057289757 0.05116659 0.078365095 -0.015505568 0.054863557 -0.020616718 -0.16831388
0.11839794 -0.04556171 0.19791642 -0.027468607 0.04129983 -0.046559636 0.01168304 0.035229035
0.091883294 0.053909864 -0.026405217 0.041953657 -0.03490686 -0.0016017312 0.08548016 -0.15964179
0.1705958 0.007370553 -0.032024942 0.024294283 0.085333265 0.0026833005 0.16767798 0.029520195
0.0234118 0.08697206 -0.12063276 -0.11133398 -0.07039725 -0.055986404 0.22485293 -0.09001641
0.056468885 -0.055938326 0.00028525866 0.049304068 -0.035848103 0.083874136 -0.07210453 0.06804999
-0.11231452 0.005556475 7.089109e-05 -0.09817097 0.09375452 -0.045303237 -0.08238369 -0.010134736
-0.030678043 0.037277844 -0.009176941 0.053618897 -0.02892435 -0.042475965 -0.09728914 -0.0092418995
0.02058622 0.018379537 -0.19678771 0.12521708 -0.24481107 0.046748456 -0.16502519 -0.032909267
0.0155018205 0.095935896 0.06564881 -0.037925072 -0.05959738 0.0038287702 0.23353049 -0.06137486
0.18110177 -0.029845996 0.07270764 0.14766161 -0.018811718 -0.086138144 -0.009305511 0.0658261
-0.10463323 0.0565044 -0.12999113 0.21593098 0.02376342 0.16123441 0.0052911183 -0.15498611
-0.12549561 -0.04059197 -0.2150538 -0.049268536 0.103095435 0.05916535 0.0891389 -0.20792192
0.047154825 0.22071388 -0.11281093 0.14931951 -0.052472845 0.052370306 0.09066594 0.00095545046
0.042013988 0.27248108 -0.113233976 0.061339773 0.021813842 -0.08850946 -0.06618953 0.03361977
-0.053125367 0.02904762 0.018998614 -0.0638693 -0.056908846 0.1051119 0.093590274 -0.24327363
0.16245534 -0.038302835 -0.01983694 -0.118575364 0.096562006 -0.03873556 -0.23100947 -0.12069109
-0.12721322 0.10276005 0.10296065 -0.18140689 0.029417904 -0.014666592 -0.09142549 -0.1397705
-0.0804253 -0.124529816 0.20200104 0.040572748 -0.1855983 -0.12773192 0.064843275 -0.071544565
-0.05996857 0.07556507 0.10138792 0.10249213 0.18252356 0.1458653 0.21759614 -0.025007002
-0.09818011 -0.12070496 -0.12383854 -0.115861244 -0.026557682 0.03827339 -0.037580296 -0.20306708
-0.008166924 0.030502584 0.03528088 -0.12374176 -0.05924376 -0.07831984 -0.059359413 0.1666527
-0.26590356 0.14398204 0.16867635 0.101006925 -0.0108800735 0.30863446 0.020787377 -0.12626998
0.06426586 -0.025866468 -0.058677193 0.13518982 -0.0011280351 -0.00059373333 -0.069729015 -0.031661794
0.046648417 0.09973738 0.0754787 0.08917683 0.07754729 -0.17787884 0.16871704 -0.018408528
00000000: 9287 b53d bbe3 d53b 87f9 f43c 69f3 a6bd
00000010: f81f 3bbd a3bb 81bc 1681 f53b 3b85 f03d
00000020: 2e3f aebd f1db 6dbc f2bf 0d3e f616 4d3d
00000030: 9503 ab3c 9a63 b73b 8663 4dbd 4594 9abd
00000040: d8d3 0d3e 6407 9bbd 3d2a dbbd 42f9 613c
00000050: 6485 9c3c 97cc 163e 7ff2 8f3d 3ae0 11be
00000060: cd7f df3c c85c 80bd 4bd1 74bd 19af 2c3d
00000070: f9db 18be cd66 133c d3e8 a8bd 9ff6 c63d
00000080: 3f4b dabc f57e c33c b5a3 9cbd 5e3a 7abd
00000090: 919b 7abd 74e2 6c3e 639b 40bc 477c 8dbd
000000a0: dc0d 0c3d a793 4dbd f727 6d3d 10c5 78bc
000000b0: e3ce 71bd efda c7bd e62e 13be 27ed adbc
000000c0: ac2f 213d 9eea 00bc 20a0 b8bd 8bf2 e7bd
000000d0: 6428 50bd f99e a93a 632e 7bbd 0b60 6a3d
000000e0: 63c3 90bd aaa8 6abd 0f94 513d e17d a03d
000000f0: 110b 7ebc 9cb8 603d 64e4 a8bc 795a 2cbe
00000100: 9f7a f23d ea9e 3abd 9aaa 4a3e d805 e1bc
00000110: 032a 293d 51b5 3ebd 396a 3f3c 524c 103d
00000120: 4f2d bc3d 97d0 5c3d c14f d8bc 99d7 2b3d
00000130: 7ffa 0ebd 2ef1 d1ba 3910 af3d 2379 23be
00000140: aab0 2e3e ae84 f13b 962c 03bd ce04 c73c
00000150: 35c3 ae3d 50da 2f3b c7b3 2b3e 56d4 f13c
00000160: 1aca bf3c 681e b23d 4f0e f7bd 1203 e4bd
00000170: 6f2c 90bd 0052 65bd d93f 663e 865a b8bd
00000180: eb4b 673d 961f 65bd c58e 9539 10f3 493d
00000190: 76d5 12bd 34c6 ab3d 8aab 93bd cb5d 8b3d
000001a0: 2805 e6bd 1713 b63b 5dab 9438 dd0d c9bd
000001b0: 5f02 c03d e38f 39bd c8b8 a8bd 2a0c 26bc
000001c0: 8550 fbbc a7b0 183d e15a 16bc 7d9f 5b3d
000001d0: c2f2 ecbc 47fb 2dbd 873f c7bd 566b 17bc
000001e0: 6fa4 a83c af90 963c b882 49be e838 003e
000001f0: c1af 7abe 4f7b 3f3d 5dfc 28be decb 06bd
00000200: 59fb 7d3c 0a7a c43d e272 863d 5257 1bbd
00000210: 621c 74bd 1bec 7a3b 9e22 6f3e 3564 7bbd
00000220: be72 393e 977f f4bc bee7 943d 9b34 173e
00000230: 081b 9abc 3269 b0bd 2476 18bc d6cf 863d
00000240: f249 d6bd 2871 673d 651c 05be 031d 5d3e
00000250: 81ab c23c a21a 253e 1e61 ad3b aeb4 1ebe
00000260: ec81 00be c443 26bd 1037 5cbe cecd 49bd
00000270: b323 d33d 5e57 723d 758e b63d 7ce9 54be
00000280: 6b25 413d d202 623e 6b09 e7bd 37e7 183e
00000290: c4ed 56bd 3f82 563d 10af b93d 3277 7a3a
000002a0: dc16 2c3d a482 8b3e 37e7 e7bd 6a3f 7b3d
000002b0: f1b2 b23c 7344 b5bd 608e 87bd e2b4 093d
000002c0: fc99 59bd 46f5 ed3c fba2 9b3c e8cd 82bd
000002d0: 4019 69bd e844 d73d 42ac bf3d b91c 79be
000002e0: b15a 263e 6fe3 1cbd 1481 a2bc a4d7 f2bd
000002f0: 4dc2 c53d 2ea9 1ebd bf8d 6cbe e42c f7bd
00000300: 2f44 02be dc73 d23d 09dd d23d bac2 39be
00000310: d1fd f03c 254c 70bc 4a3d bbbd ff1f 0fbe
00000320: 05b6 a4bd 7d09 ffbd 5cd9 4e3e 9c2f 263d
00000330: 7b0d 3ebe 28cc 02be 8dcc 843d f585 92bd
00000340: 9aa1 75bd dcc1 9a3d 78a4 cf3d 65e7 d13d
00000350: 75e7 3a3e b75d 153e 86d1 5e3e 7cdb ccbc
00000360: a712 c9bd 2934 f7bd 0f9f fdbd a948 edbd
00000370: 7f8f d9bc 8fc4 1c3d cced 19bd d1f0 4fbe
00000380: 90ce 05bc 8ee0 f93c af82 103d 526c fdbd
00000390: 96a9 72bd 2766 a0bd db22 73bd 01a7 2a3e
000003a0: 8324 88be 0770 133e 7eb9 2c3e b8dc ce3d
000003b0: 5642 32bc 5605 9e3e 4a4a aa3c eb4c 01be
000003c0: d29d 833d eae5 d3bc 7f57 70bd 336f 0a3e
000003d0: 94da 93ba c5a4 1bba 16ce 8ebd ccaf 01bd
000003e0: 6912 3f3d 1d43 cc3d 9494 9a3d 58a2 b63d
000003f0: 1dd1 9e3d df25 36be 29c4 2c3e 7bcd 96bc

fcl2.bias f4 [84]
-0.08897694 -0.1735254 -0.00970687 -0.031324238 0.18977368 0.22019048 0.039447356 -0.073342554
0.05143913 0.06347929 -0.11743857 -0.011915222 0.12398348 -0.10604684 -0.1263859 0.12554426
-0.041655675 0.13749169 -0.09368293 0.17240074 -0.22593187 0.056609437 -0.036740895 -0.17205483
-0.10883176 0.19994374 0.3330165 0.17755142 -0.042917002 0.0338737 0.021273054 -0.15378094
0.14014943 0.010633416 -0.13246855 -0.13962342 -0.3742095 -0.012174576 0.26669338 0.32562673
-0.089964055 0.08488954 -0.118455105 0.38233253 -0.3166113 0.13543876 0.08980456 0.04363367
0.22019652 -0.12226837 0.15727119 -0.10157157 -0.03139917 -0.1393112 -0.095908046 0.27491632
-0.023955736 0.24301596 -0.04221699 0.158496 0.3080703 -0.051392198 0.005654651 -0.013800588
0.00948802 0.06122938 0.32675654 -0.06604622 0.14480431 0.3167274 0.22303241 -0.12811057
0.28756526 0.09271614 0.3550573 0.20638558 0.067667894 0.0024185746 0.10956046 0.07869042
-0.062160555 -0.09215457 0.36481455 0.030803433
00000000: 8b39 b6bd a4b0 31be 9009 1fbc d84d 00bd
00000010: 0854 423e 9d79 613e 8d93 213d 9f34 96bd
00000020: d6b1 523d 6e01 823d a283 f0bd 1038 43bc
00000030: 0deb fd3d 162f d9bd 4e6b 01be ad8e 003e
00000040: 249f 2abd 9fca 0c3e d6dc bfbd d289 303e
00000050: af5a 67be 4cdf 673d 9f7d 16bd 242f 30be
00000060: 30e3 debd 0dbe 4c3e 2481 aa3e 0ad0 353e
00000070: bdc9 2fbd 26bf 0a3d d444 ae3c c078 1dbe
00000080: 5583 0f3e c737 2e3c d6a5 07be 71f9 0ebe
00000090: 6398 bfbe df77 47bc 098c 883e 8cb8 a63e
000000a0: 133f b8bd 91da ad3d 9798 f2bd 17c1 c33e
000000b0: e01a a2be 75b0 0a3e 74eb b73d 38b9 323d
000000c0: 327b 613e d767 fabd b30b 213e c104 d0bd
000000d0: 6b9c 00bd 98a7 0ebe 706b c4bd d5c1 8c3e
000000e0: d23e c4bc 2dd9 783e b9eb 2cbd c74c 223e
000000f0: 64bb 9d3e a080 52bd a74a b93b dd1b 62bc
00000100: a473 1b3c a9cb 7a3d a24c a73e 3e43 87bd
00000110: 9547 143e 182a a23e 9c62 643e 6b2f 03be
00000120: c13b 933e f6e1 bd3d 12ca b53e be56 533e
00000130: 7795 8a3d f380 1e3b 3c61 e03d 7128 a13d
00000140: 119c 7ebd 89bb bcbd f9c8 ba3e 7b57 fc3c

fcl3.weight f4 [10, 84]
0.3054304 -0.16715303 -0.5284982 0.31159517 0.35085288 -0.008313115 -0.08962932 -0.05390865
-0.1578618 0.19858287 0.34374014 0.09360099 0.2811002 0.19556148 0.26456666 0.727936
-0.2602355 0.12454673 -0.36374682 -0.07724283 0.11791993 -0.28334814 0.16898227 -0.06298083
0.3147598 -0.2732074 0.2613752 -0.36172572 0.048796684 0.24665557 0.12614876 0.30659348
-0.25157526 -0.049175713 -0.08231768 -0.42477456 0.022200624 0.2996672 -0.11923947 -0.058678858
-0.14199187 -0.30778304 0.00041412606 0.10786176 -0.08710652 -0.21240954 0.49719068 -0.2854959
0.43905872 0.17590679 0.11517314 0.0020788484 0.003613788 -0.08595644 0.31617558 0.2098516
0.4582067 0.12875398 0.25407234 -0.32993785 -0.055158816 -0.27673683 0.030761834 -0.5427766
0.12761655 0.05026201 -0.21861134 0.43512148 -0.32829535 -0.026449118 -0.24202305 0.3559232
-0.56366867 0.03940968 -0.24702299 -0.20369145 0.29561564 -0.015727447 -0.42870346 -0.51355886
-0.012948812 0.5089245 -0.13611922 0.22343062 -0.15840021 -0.014176274 -0.0766166 -0.48159212
0.034028485 -0.016612537 0.18641245 -0.35344526 -0.030151702 -0.3226216 0.14180438 0.1055223
-0.36019367 0.50193703 -0.013344248 -0.29509532 0.21635899 -0.09732651 0.40086356 -0.10718757
0.6628217 -0.08162751 0.00450418 0.4313188 0.24480247 -0.38963005 -0.20925902 0.30224106
-0.344313 -0.39227444 -0.14258549 0.22900888 0.0041638585 -0.043273468 0.3169793 0.31193283
0.049055435 0.14570504 -0.5066044 -0.18239948 0.104473494 0.1289922 -0.0010178831 -0.3304577
0.19675404 0.1078023 0.033006445 -0.0071785413 -0.40282363 -0.1033251 0.10814748 -0.23383874
-0.046078406 0.010838898 -0.17698318 -0.018331366 -0.16362809 0.091889754 -0.2776021 -0.03122192
-0.09424525 0.15881701 0.10893883 -0.18048261 0.5333687 0.1378437 -0.020272627 -0.34088364
0.14020877 -0.5615316 -0.5063224 0.12173678 -0.41665426 -0.19341622 -0.03678419 -0.24111772
0.112963095 0.4664297 -0.4957078 0.38190708 -0.29479632 0.014848217 0.08626656 -0.15378445
-0.2581479 0.38914105 -0.07035448 0.43053764 -0.44792974 0.039490525 -0.48569474 0.28563288
-0.32696393 0.25760636 -0.28148657 -0.36326182 0.26604325 -0.32308474 0.58611834 0.07498994
-0.31068063 0.072495595 0.3118177 -0.36268625 -0.23094392 0.25487503 0.26026627 0.20479338
-0.15242842 -0.052721743 -0.3205185 0.36416462 -0.2260506 0.42134362 0.13067076 0.66126055
0.3083856 -0.37981084 -0.103269175 0.16687918 0.25413856 0.079490304 0.032654256 -0.6152959
0.03231437 -0.024829203 0.74910766 0.26903504 0.6893264 -0.18921041 -0.17683077 -0.010268475
-0.4207834 0.32306546 -0.16541137 0.2856848 0.10235355 0.506287 0.017229328 0.089490235
-0.3390045 -0.4134286 0.67381775 0.34161595 -0.15208061 0.37004587 0.16975546 -0.3440609
0.095037736 -0.29695824 0.3337555 0.16028802 -0.4684905 0.2028364 0.4473175 0.30648077
0.015008139 -0.19534951 0.17799847 0.07467891 -0.1503801 -0.33845353 -0.17513956 -0.3534605
-0.24252711 -0.23476858 -0.22937436 -0.3719654 -0.26522368 -0.02440782 0.2742368 -0.008030613
00000000: 6061 9c3e 2a2a 2bbe a84b 07bf 6789 9f3e
00000010: fda2 b33e bb33 08bc 948f b7bd 51cf 5cbd
00000020: 86a6 21be 4f59 4b3e b5fe af3e e0b1 bf3d
00000030: 5eec 8f3e 4541 483e 4875 873e 045a 3a3f
00000040: 963d 85be 5b12 ff3d 063d babe 7d31 9ebd
00000050: 0180 f13d 0213 91be b009 2d3e 18fc 80bd
00000060: 3228 a13e d7e1 8bbe f8d2 853e 1d34 b9be
00000070: 08df 473d 4793 7c3e 242d 013e d2f9 9c3e
00000080: 79ce 80be 796c 49bd 2c96 a8bd 0d7c d9be
00000090: 15de b53c fb6d 993e d333 f4bd 3e59 70bd
000000a0: 5166 11be bd95 9dbe 0f1f d939 a0e6 dc3d
000000b0: e764 b2bd e381 59be c78f fe3e 852c 92be
000000c0: 4ecc e03e e920 343e e5df eb3d 4a3d 083b
000000d0: 4dd5 6c3b ee09 b0bd c4e1 a13e 56e3 563e
000000e0: 129a ea3e 15d8 033e c515 823e 9ded a8be
000000f0: 36ee 61bd 73b0 8dbe 3e00 fc3c 68f3 0abf
00000100: eaad 023e 8adf 4d3d a7db 5fbe 3ec8 de3e
00000110: 5416 a8be d2ab d8bc e4d4 77be 913b b63e
00000120: 974c 10bf 0b6c 213d 98f3 7cbe 7e94 50be
00000130: ef5a 973e d9d6 80bc 057f dbbe 9878 03bf
00000140: 4127 54bc e048 023f d662 0bbe ffca 643e
00000150: aa33 22be 9a43 68bc 2ae9 9cbd 3e93 f6be
00000160: 7461 0b3d 0417 88bc e8e2 3e3e c7f6 b4be
00000170: b400 f7bc a92e a5be 2b35 113e 131c d83d
00000180: 4e6b b8be f27e 003f d5a1 5abc bc16 97be
00000190: 368d 5d3e 1f53 c7bd fd3d cd3e 2885 dbbd
000001a0: afae 293f 532c a7bd cd97 933b d1d5 dc3e
000001b0: 80ad 7a3e 977d c7be ff47 56be 57bf 9a3e
000001c0: cb49 b0be 32d8 c8be ee01 12be 4e81 6a3e
000001d0: fa70 883b 853f 31bd 1c4b a23e a9b5 9f3e
000001e0: 5aee 483d b433 153e d3b0 01bf eec6 3abe
000001f0: 33f6 d53d 8816 043e 7d6a 85ba c031 a9be
00000200: e479 493e 74c7 dc3d c431 073d f839 ebbb
00000210: e63e cebe 1c9c d3bd 6d7c dd3d 6c73 6fbe
00000220: b6bc 3cbd a295 313c 143b 35be a92b 96bc
00000230: 1f8e 27be b230 bc3d dd21 8ebe 1dc5 ffbc
00000240: a703 c1bd eda0 223e 521b df3d 6fd0 38be
00000250: da8a 083f e626 0d3e c812 a6bc 4d88 aebe
00000260: e392 0f3e 89c0 0fbf 589e 01bf 2251 f93d
00000270: b553 d5be e70e 46be 05ab 16bd 90e7 76be
00000280: 3259 e73d e0cf ee3e 6acd fdbe 5389 c33e
00000290: 8bef 96be f045 733c 86ac b03d ac79 1dbe
000002a0: f62b 84be 7f3d c73e 0216 90bd 6e6f dc3e
000002b0: 0c57 e5be d1c0 213d fbac f8be 793e 923e
000002c0: d167 a7be fbe4 833e 021f 90be 74fd b9be
000002d0: d236 883e 5d6b a5be da0b 163f 5394 993d
000002e0: 8811 9fbe 9278 943d 92a6 9f3e 03b2 b9be
000002f0: 907c 6cbe fb7e 823e 9f41 853e 5bb5 513e
00000300: 3216 1cbe c1f2 57bd 001b a4be c973 ba3e
00000310: cf79 67be 5aba d73e 8ece 053e 5f48 293f
00000320: b8e4 9d3e 9176 c2be ca7e d3bd 60e2 2a3e
00000330: 731e 823e d0cb a23d 78c0 053d 0884 1dbf
00000340: 135c 043d 9d66 cbbc 85c5 3f3f f6be 893e
00000350: b277 303f 60c0 41be 2013 35be 1b3d 28bc
00000360: ec70 d7be d668 a53e 9961 29be 4745 923e
00000370: bd9e d13d 069c 013f 8524 8d3c a846 b73d
00000380: ff91 adbe eaac d3be 527f 2c3f 49e8 ae3e
00000390: 05bb 1bbe a776 bd3e 60d4 2d3e c028 b0be
000003a0: 25a3 c23d e90a 98be 00e2 aa3e 8b22 243e
000003b0: fddd efbe 58b4 4f3e cd06 e53e 0ceb 9c3e
000003c0: b3e4 753c b409 48be 3b45 363e 42f1 983d
000003d0: 3efd 19be c849 adbe c957 33be c6f8 b4be
000003e0: 0759 78be 2d67 70be 1de1 6abe 4072 bebe
000003f0: 66cb 87be e9f2 c7bc c468 8c3e d592 03bc

fcl3.bias f4 [10]
-0.32714763 -0.49547437 -0.2028762 0.29149863 0.7490101 -0.048742637 0.34966567 -0.25912327
0.12178444 -0.1623602
00000000: e57f a7be d1ae fdbe c7be 4fbe 4f3f 953e
00000010: 20bf 3f3f 5ca6 47bd 6107 b33e ceab 84be
00000020: 1f6a f93d c141 26be
